saved_models/14_best_model_word.pt (torch_old, 78263 bytes, 11 tensors)

word_gru.weight_ih_l0 f4 [30, 300]
000000 a6 fb f8 3a 17 a6 a3 3b 23 99 70 bb 9b 47 91 ba
       0.0018995896 0.0049941647 -0.003671237 -0.0011083962
000010 79 55 59 3a 25 f6 91 ba a8 d0 ad 3b 18 87 6b 3b
       0.00082906295 -0.0011135979 0.005304415 0.0035938676
000020 6c ba 83 ba 4c 5e 92 bc 28 44 43 3b 1c 32 27 3b
       -0.0010050065 -0.01786723 0.0029795263 0.0025512045
000030 85 af 80 bb 96 44 aa ba ec 92 27 3b 75 ee 4a ba
       -0.0039271736 -0.0012990411 0.002556975 -0.00077412213
000040 18 39 ac ba 36 a8 66 3b f7 59 bf bb 60 c4 38 bc
       -0.0013139574 0.0035195476 -0.005839582 -0.011277288
000050 cc ae c3 bb 06 e9 6d bb bd 5b 14 3b be ce ad 3a
       -0.005971765 -0.0036302223 0.0022637688 0.0013260467
000060 2d 4c f4 ba bc b6 5f bb 5a bd db 39 92 cd a5 ba
       -0.0018638425 -0.0034136018 0.00041912013 -0.0012649766
000070 ea 94 de bb 1e 13 6e 3b 71 25 20 3a 52 6f da 3b
       -0.0067926543 0.0036327313 0.0006109095 0.0066661024
000080 a1 53 88 bb e3 5f cf 3b f2 a6 19 bc af 07 ab 3a
       -0.00416036 0.0063285693 -0.009378182 0.0013048555
000090 46 d2 01 3b 1d 49 3f b9 d8 34 b2 bb 0e 4b 8f bb
       0.001980917 -0.00018242416 -0.0054384284 -0.004372961
0000a0 0c 90 e0 ba f1 c3 82 bb a1 94 bb ba d3 41 7d 3b
       -0.0017132773 -0.003990643 -0.0014311263 0.003864397
0000b0 32 cf ec ba 9d c4 00 bc fb 39 3a b9 87 ff c5 3b
       -0.001806712 -0.007859376 -0.00017759942 0.006042424
0000c0 6f ec db 3a 4e 45 8d 3b d7 29 d5 3b 86 87 91 3a
       0.0016778837 0.0043112403 0.006505232 0.0011103011
0000d0 76 92 2f bb 4d 74 f4 3a aa 96 62 ba 26 24 ab ba
       -0.0026790178 0.0018650383 -0.00086436665 -0.0013057038
0000e0 98 9f 51 bb 30 a4 0b 3b ae 87 65 3a 11 af 41 39
       -0.0031985994 0.002130758 0.00087558746 0.00018471132
0000f0 66 84 54 ba 9f 96 85 b9 ad e2 04 39 62 48 d8 bb
       -0.0008106887 -0.00025479958 0.00012672944 -0.0066004256
000100 7c 51 12 3b 5f d5 59 bb f5 56 b7 3a 7b 97 3d 3b
       0.00223264 -0.0033238751 0.0013987707 0.00289294
000110 aa 5c 82 3b a0 2d 4a bb 0c d9 83 ba ab 82 b3 39
       0.0039783316 -0.0030849949 -0.0010059192 0.00034238896
000120 39 88 30 3b 17 94 80 bb 17 00 ba bb 67 9a fa 39
       0.0026936664 -0.0039239037 -0.0056762802 0.00047798755
000130 d9 fb 4b 3b c4 f2 0e 3a d3 77 02 3b 20 cc 30 3b
       0.0031125455 0.0005453045 0.0019907847 0.0026977137
000140 d0 48 b7 ba d0 86 4e bb 50 e9 bd ba 18 e3 82 bb
       -0.0013983492 -0.003151346 -0.0014489088 -0.003994357
000150 91 d3 1b 3b 9c 93 b2 bb 03 05 5b 39 c8 e6 e4 ba
       0.0023777226 -0.0054497253 0.00020887335 -0.0017463798
000160 70 ee 0b 3b 6a 55 e7 3a b2 4d 04 3a 6f 58 de 39
       0.0021351837 0.0017649357 0.0005046978 0.00042409028
000170 30 51 f6 ba 8c c3 22 3a ef 1d ae 39 79 92 3f 3a
       -0.0018792506 0.00062089483 0.00033210168 0.0007307898
000180 db d8 ef ba 11 4b 4e ba 07 4f 0e 3a f2 17 90 39
       -0.0018298881 -0.0007869462 0.0005428646 0.0002748366
000190 01 ab c0 b9 c5 52 57 bb cb eb dc 3a 9c 7d 9c bb
       -0.00036748502 -0.003285573 0.001685494 -0.004775716
0001a0 bc bf 85 b9 ee 64 a2 3a d7 d9 06 3b 9f 77 05 3b
       -0.0002551059 0.0012389699 0.002057662 0.002036549
0001b0 2a d2 ae bb 3d e1 f4 b6 2d 48 58 3b cd 81 b6 bb
       -0.005335112 -7.297988e-06 0.0033002004 -0.0055696727
0001c0 dc 26 7c 3a ab eb 91 3a 9b 9b 48 3b 1e fc 1a bb
       0.00096188276 0.0011132857 0.0030610326 -0.0023648809
0001d0 71 5c 47 ba fd ea 7f 3b cf db f0 3a c5 94 1b 3a
       -0.00076050224 0.0039049976 0.0018376055 0.0005934949
0001e0 06 ff 22 3a f4 8e 9c bb 1e c6 8d ba 8c 0f 7e bb
       0.0006217811 -0.0047777835 -0.001081649 -0.003876659
0001f0 2c 4e c4 3a 59 5d 3d ba 86 2f 6a 3b c0 fe 44 39
       0.001497691 -0.0007223688 0.0035733893 0.00018786918
000200 a5 e4 35 3b 99 28 61 bb d8 34 15 bb 88 8d 17 3b
       0.002775469 -0.0034356473 -0.0022767093 0.002312513
000210 0a 18 e0 b8 9c 21 17 3b 44 be 9b 3b 54 ce 50 b9
       -0.0001068563 0.0023060804 0.004752906 -0.00019913289
000220 12 40 9c ba 56 c9 7c bb 16 75 8a bb 10 4a c4 ba
       -0.001192095 -0.0038572154 -0.0042253835 -0.0014975686
000230 e6 e8 ab 39 51 55 cd bb 0d 13 e6 37 b7 72 92 3a
       0.00032789184 -0.006266274 2.7427008e-05 0.0011173104
000240 ca 89 74 bb c8 43 02 3a 23 43 33 bb 82 e1 68 bb
       -0.0037313574 0.00049692066 -0.002735325 -0.0035534804
000250 06 24 d2 b9 72 0e 23 bc 48 d9 dd 3b ce cf df bb
       -0.0004008116 -0.0099521745 0.0067702867 -0.006830192
000260 ad 7f 9a 3a a7 37 f7 ba a5 ec 25 ba b2 1c ad 3b
       0.0011787318 -0.001886119 -0.0006329513 0.0052829618
000270 17 54 d3 bb 54 e2 82 39 2a b4 6a bb e7 48 04 bb
       -0.0064492333 0.0002496416 -0.0035812953 -0.0020185055
000280 59 a0 28 ba 6c 57 c6 ba 03 47 ab bb 88 eb ca 3a
       -0.0006432585 -0.0015132255 -0.005226971 0.0015481571
000290 77 4d b0 ba 32 e1 a4 ba f0 f0 27 ba 00 17 44 bb
       -0.0013450821 -0.001257932 -0.0006406447 -0.0029920936
0002a0 86 7d a1 bb 50 7a c4 3a 54 fb 8e 3b ee 6f ff ba
       -0.0049282936 0.0014990065 0.0043634567 -0.0019488314
0002b0 f3 ad c9 ba 29 cb 48 3b e3 c3 df b9 dd b8 7a bb
       -0.0015386924 0.003063867 -0.00042679821 -0.003825716
0002c0 26 78 e8 3b b2 1a 9b ba 70 9a 53 3b 5d 52 d9 3b
       0.007094401 -0.0011833517 0.0032288097 0.006632133
0002d0 bd be 99 bb f1 b9 ad 3b 0d 05 82 bb bb 63 9a ba
       -0.004691927 0.005301707 -0.0039678873 -0.001177899
0002e0 17 82 0e 3a 0f cf 94 bb ed 61 19 ba 39 ae d4 3a
       0.0005436255 -0.004541285 -0.0005851079 0.0016226239
0002f0 82 db 84 bb 25 bc 06 3a 86 24 79 ba 59 bb ee 3b
       -0.0040544877 0.000513973 -0.00095040386 0.007285517
000300 5f f6 33 bb 27 8e 28 bb 03 46 b7 bb 5d 29 80 ba
       -0.002746008 -0.0025719495 -0.005593063 -0.0009777952
000310 b5 ee a1 3b 1e 1f 26 bb 66 59 ee b9 b8 3b d6 ba
       0.004941786 -0.0025348137 -0.00045461504 -0.0016344702
000320 c1 75 5a 3b 14 4c 68 bb 30 af 6b bb 17 e6 ce 3a
       0.0033334347 -0.0035445737 -0.0035962574 0.0015785125
000330 8b 85 fa ba 5f a9 3f 3b ce aa 77 ba ae bd d5 39
       -0.0019113285 0.002924524 -0.0009447754 0.00040767848
000340 13 d9 22 bb 72 bf 91 bb 79 40 2a bb 14 36 84 bb
       -0.0024848625 -0.004447871 -0.002597837 -0.004034767
000350 a8 f0 95 bb 21 9d bb 3b ca 6a 0f ba 34 04 14 3b
       -0.0045758076 0.0057255183 -0.000547093 0.0022585513
000360 df 98 7c bb d3 fd 45 3a 20 5c ba ba 1c 90 1c 3a
       -0.0038543267 0.00075527764 -0.0014218129 0.00059724017
000370 e8 6e 62 ba 39 e5 cb ba 10 58 91 bb d4 ab c2 ba
       -0.0008637742 -0.0015555985 -0.0044355467 -0.0014852234
000380 92 ae 82 ba f1 eb 90 3a e3 5d eb ba 9d 4d 2e 3b
       -0.0009970239 0.0011056644 -0.0017957058 0.0026596554
000390 3b 61 90 bb 18 a6 c2 ba 32 aa 4c bb 08 ee e6 3a
       -0.004406122 -0.0014850525 -0.0031229374 0.0017618546
0003a0 30 8f 7d bb 2b d3 72 3b 05 9b dd 3a b5 37 e2 3b
       -0.0038690083 0.0037052135 0.0016907161 0.0069036135
0003b0 87 07 b0 3b ac bd c5 ba c0 f4 56 37 b2 10 b0 3b
       0.005371991 -0.0015086434 1.2812379e-05 0.005373084
0003c0 9c 9f 5d 3a 8e 74 15 ba 1a 5d 09 3b e7 14 93 39
       0.00084542646 -0.0005701267 0.0020960034 0.00028053598
0003d0 a6 51 7b bb 50 08 88 3b 5a a0 77 ba fc a8 c9 bb
       -0.0038348227 0.0041513816 -0.00094461965 -0.0061541777
0003e0 96 e7 c4 ba e6 1d 52 3a 45 d5 0d 39 87 e3 30 3b
       -0.0015022631 0.00080153195 0.00013526257 0.0026991086
0003f0 13 a4 51 bb 9f 9d e9 bb da f0 ea bb d3 3b f5 3a
       -0.0031988665 -0.0071293856 -0.007169825 0.0018709846

word_gru.weight_hh_l0 f4 [30, 10]
000000 80 33 e9 3c 9b 21 4d bc 6d 7c f3 bb f1 58 9c bb
       0.02846694 -0.012520219 -0.007430604 -0.004771345
000010 6f f9 d7 bb ce 2a 8b bb bf 7e f6 3b ad 93 a3 bc
       -0.006591014 -0.004247046 0.0075224335 -0.019967878
000020 5b 45 dc 3c 50 8c f7 ba cc 49 db 3d 79 d0 c2 3b
       0.02688854 -0.0018886421 0.10707435 0.005945262
000030 49 f6 12 3d cf 88 99 bd 83 95 23 3e df 76 35 3d
       0.035879407 -0.07496797 0.15975003 0.044302817
000040 c2 db e3 3c d2 09 d7 bd 0b 63 df 3d 0f c9 2f bb
       0.02781475 -0.1049992 0.10907563 -0.002682272
000050 35 48 44 3d 53 01 91 3c 21 01 bb 3c c3 52 a9 bd
       0.047920424 0.017700827 0.022827687 -0.08267739
000060 98 84 3d 3d 78 26 31 3c 12 a8 bd 3c 45 04 98 bd
       0.04626903 0.010812394 0.023151431 -0.07422689
000070 e4 5a 45 3d 55 f3 a2 3c 54 69 29 3d 65 c5 09 3c
       0.048182383 0.01989142 0.041360214 0.008408879
000080 8b dd 8d ba 18 85 19 3c f6 4d 15 bc f7 ca 4c 3c
       -0.0010823471 0.009370111 -0.009112826 0.012499562
000090 69 96 a6 bc 35 3d 67 3b 9c 19 f7 3c af 70 a4 bb
       -0.020335393 0.0035284285 0.030163579 -0.0050183157
0000a0 bf 90 c3 3d bc 77 03 3e 36 d4 92 3d 35 53 ee bc
       0.095490925 0.12838644 0.07169382 -0.02909241
0000b0 df 28 de 3d ee 98 5c 3d b3 97 b2 3d 0b 07 98 bd
       0.10847639 0.053856783 0.087203406 -0.07423218
0000c0 74 00 93 3d 32 83 9c 3d bf 42 5d 3c 6b be 84 bc
       0.07177821 0.07642211 0.013504683 -0.01620408
0000d0 1c d1 9c bc f3 a5 dd 3c 66 39 4a bd b7 56 38 39
       -0.01914268 0.02705667 -0.049371146 0.00017579911
0000e0 6c ba 18 bd d9 9b a3 3c 57 60 68 3c 08 3d d9 bc
       -0.03728716 0.019971775 0.014183125 -0.02651836
0000f0 4d 10 5b 3c 33 cb 32 bc 22 a9 12 bc 98 56 44 3c
       0.013370586 -0.010912704 -0.008951457 0.011983536
000100 f1 17 f6 bb e3 08 91 3b 24 c3 32 bc 71 c4 87 bb
       -0.0075101783 0.004426108 -0.010910783 -0.0041432907
000110 6b 58 3c 3c 73 81 29 bc 1c ab 93 3d b5 e1 ba bd
       0.01149569 -0.0103458045 0.07210371 -0.091250814
000120 fc 07 72 3c 65 3f 8c 3c 02 3c c4 bd 5a dc 1d bc
       0.014772411 0.017120073 -0.09581758 -0.009635055
000130 e2 cb ab 3b 3e 75 5d bd 4a 61 9f 3d e2 0f 9c bd
       0.0052428106 -0.05406689 0.07782228 -0.07620217
000140 88 0c a8 3c f0 fa 21 bc 63 ae 8e bb 3a ee 91 bb
       0.020513788 -0.009886488 -0.0043542846 -0.0044534476
000150 4f 76 cc ba 98 0a f3 3b cd 6e a3 3b 8b db 84 bc
       -0.0015599224 0.0074170344 0.0049875737 -0.016217967
000160 83 f7 ae 3c 2e 61 a6 b9 7b df 06 3d 89 21 d2 bc
       0.021358257 -0.00031734392 0.03292797 -0.025650756
000170 b4 d2 d1 3c 25 63 a9 3d 7f d0 2c bd 53 0c a4 3c
       0.025613166 0.082708634 -0.042191025 0.020025408
000180 5c 5c 5c 3c e2 09 4f bc 1d b7 08 3d bc bf 4b bb
       0.013449755 -0.012636634 0.033377755 -0.0031089624
000190 fa 15 00 3d f6 ca 5b bc b4 74 25 bb 4d 5c e0 bb
       0.03127096 -0.013415089 -0.0025246562 -0.0068469406
0001a0 f8 01 4c bc 75 b8 2b 3c 04 9a d0 3b 19 25 ce bc
       -0.012451641 0.01048099 0.0063660163 -0.025164174
0001b0 8e be 15 3d 34 fa b3 3a 4c 1b 3f 3e df 61 b1 3d
       0.03655868 0.0013731183 0.18662757 0.086612456
0001c0 c9 75 92 3e 9f 96 26 3e 5b 83 60 be a6 c0 12 ba
       0.28605488 0.16268395 -0.21925108 -0.0005598165
0001d0 ea 5c c1 bd 42 5a 03 be 10 70 4c 3e 32 a1 3e be
       -0.0944155 -0.128274 0.19964623 -0.18616179
0001e0 33 7d 2c 3e 87 c8 26 be 95 f7 c3 3e 5b 7f 45 bc
       0.16844635 -0.16287433 0.38274828 -0.01205429
0001f0 1c 86 9c be 4a 6e 45 3e 74 03 bb be 1a 2a f1 3d
       -0.30571067 0.19280353 -0.36526072 0.11775608
000200 21 4a 19 3e 8b 76 8f be e0 f9 d9 3d f2 1e 8f be
       0.14969684 -0.2802013 0.10643363 -0.27953297
000210 35 11 5a ba 2e 5d c2 bd 19 40 90 be 8f 41 cb bd
       -0.0008318604 -0.09490429 -0.28173903 -0.09924614
000220 89 75 62 be 8f 74 a1 bc f7 eb 13 3e fd 60 23 be
       -0.22115149 -0.0197089 0.14445482 -0.15954967
000230 1e 4e 00 3e ad 6f dd 3d 01 99 32 3e 98 bf fe bd
       0.125298 0.10812316 0.17441179 -0.12438887
000240 64 3c 08 bd 5f 12 59 bc b9 19 c0 be 2a e1 c6 3e
       -0.033260718 -0.013249009 -0.37519625 0.38843662
000250 c4 d1 e4 3d 01 f1 06 be 5d 93 15 3e bf a2 3f be
       0.11172822 -0.13177873 0.14606996 -0.18714426
000260 96 cc ab 3d 3c 66 23 3e 9f 5d 00 be 70 f1 af bc
       0.08388631 0.15956968 -0.12535714 -0.021477431
000270 6b b8 dc be f7 20 16 3d ed 69 0a 3e 43 44 be bd
       -0.4310945 0.03665253 0.1351697 -0.09290364
000280 af fc 11 be 56 de a8 3c 3b 56 c3 3d 70 6e a0 3c
       -0.14256547 0.02061383 0.095379315 0.01958391
000290 c9 14 3d bb 72 00 5c 3d 6f 77 ca bd 12 cc e3 3d
       -0.00288515 0.053711362 -0.098860614 0.11122908
0002a0 57 e1 f8 bd 75 e3 6c bc ef 00 c7 3b 0a ad 6b be
       -0.12152355 -0.014458527 0.0060731093 -0.23015228
0002b0 f2 76 3d 3e 5f 8e 84 3d 04 17 10 bf 90 c1 66 3e
       0.18502405 0.06472468 -0.5628512 0.22534776
0002c0 fb 96 4c bd 3e 5b 80 3e 64 39 a9 3d 9d be ce bd
       -0.049948674 0.25069612 0.082628995 -0.1009495
0002d0 a1 92 8e 3d 9a a6 3c bd a6 0a a8 bc 96 19 89 bc
       0.06961561 -0.04605732 -0.02051289 -0.016735833
0002e0 33 b1 79 bc 18 f8 d7 3c bc bc aa 3d 06 86 a5 bd
       -0.0152400015 0.026363418 0.083367795 -0.080822036
0002f0 77 dc a9 3d b2 ed 83 3b 45 95 ba 3e 3e 11 22 bd
       0.082940035 0.004026138 0.3644201 -0.039567225
000300 a6 13 2b 3d 15 fc bc bd 40 6a e7 bd 68 4b 35 bd
       0.041766785 -0.09227768 -0.112995625 -0.044261366
000310 24 f0 ca bd 77 b5 0e 3d c2 ae a9 3e ad 20 84 bc
       -0.099090844 0.034841027 0.33141142 -0.016128862
000320 41 f9 00 3e d0 a3 9f bc 53 69 21 bc 3a f0 a8 bc
       0.12595083 -0.019487292 -0.009851771 -0.020622361
000330 ad 30 c9 bc 40 16 50 bd 3a fb 1e 3d 5d 72 f5 bd
       -0.024559343 -0.05080247 0.038813807 -0.11984704
000340 c2 8b f5 3d 96 c9 e1 bb df c4 3f 3d f4 11 87 3f
       0.11989547 -0.006890486 0.04681861 1.0552354
000350 98 37 6c 3d c7 16 f4 bd 25 34 f2 3e 2e 29 93 3d
       0.057670206 -0.11918407 0.47305408 0.07185589
000360 f9 e5 55 3e c2 de 83 bb 3f c5 ec 3c 70 62 50 3f
       0.20888509 -0.0040243575 0.028902648 0.81400204
000370 09 d3 8e 3d b8 da 00 3e 3b 1b f2 3e 22 2d b0 3b
       0.069738455 0.12583435 0.472864 0.005376474
000380 f0 a1 dd 3d fb 5d 4f bd ef 54 a2 3d da 76 0b 3e
       0.10821903 -0.050626736 0.07926356 0.13619557
000390 2b cb 41 3c f6 e4 f7 bd 77 b8 09 bd c7 18 db bd
       0.011828224 -0.12104218 -0.033623185 -0.10698085
0003a0 40 aa 8c 3d b3 d5 c1 3e 51 ed 50 be 1e 0f 82 3c
       0.0686841 0.37858352 -0.20403029 0.015876349
0003b0 d0 9e b9 bc 11 10 e4 3b d1 15 83 bc 5a 33 9b bd
       -0.022658736 0.006959923 -0.016001614 -0.07578154
0003c0 47 32 8b 3d 71 4e cb 3e 66 37 10 bd 4e 78 79 be
       0.06796699 0.39708284 -0.035209082 -0.24362299
0003d0 4a a6 08 3f 0e e1 b7 3d 7c f8 ad 3d 71 99 89 3d
       0.53378737 0.08978473 0.0849466 0.0671872
0003e0 e2 ec 4f 3e 33 b2 79 3e 4b 85 a7 3c f2 ef e7 bd
       0.20305207 0.24384384 0.020449301 -0.11325063
0003f0 ce f8 19 3d d9 33 ab bd f1 7c 36 3d 84 23 cb 3e
       0.037590794 -0.083594985 0.044552747 0.39675534

word_gru.bias_ih_l0 f4 [30]
000000 8c 56 f0 3c c0 66 da 3d d1 d5 2b 3d f2 73 19 3d
       0.029338144 0.10664129 0.041951958 0.03746409
000010 4f 7e ae 3d c0 c8 b1 3c e6 6f 88 3c c3 92 fc 3d
       0.08520185 0.02170217 0.01665492 0.1233268
000020 3d 70 a5 3c 73 97 0a 3d 26 13 87 3d 74 ee 42 3e
       0.020195121 0.03383584 0.06595449 0.19036275
000030 c4 b8 c8 3e ea e4 a9 3e 38 a3 cc 3e 17 73 c6 3e
       0.39203465 0.3318246 0.39968276 0.38759682
000040 d1 54 24 be e2 fd dc 3c 12 29 f6 3d 41 d9 a3 3e
       -0.1604798 0.02697653 0.12019552 0.3200169
000050 4b 83 74 3e 55 60 e2 ba e5 2a 9b 3d 8f 2c 2d be
       0.2387821 -0.0017271141 0.07576541 -0.16911529
000060 ff a4 68 3e da 52 74 bd c3 f8 1c 3e 3b c3 e1 be
       0.22719191 -0.059649326 0.1532927 -0.44094262
000070 9a e9 3b 3e 72 8c 28 be
       0.1835083 -0.16459826

word_gru.bias_hh_l0 f4 [30]
000000 8b 56 f0 3c 81 66 da 3d d5 d5 2b 3d bd 73 19 3d
       0.029338142 0.10664082 0.041951973 0.037463892
000010 01 7f ae 3d b2 c8 b1 3c be 6e 88 3c c3 92 fc 3d
       0.08520318 0.021702144 0.016654368 0.1233268
000020 5f 70 a5 3c 5d 32 0a 3d 1f 13 87 3d e4 dc 43 3e
       0.020195184 0.033739436 0.06595444 0.19127232
000030 2f 91 c8 3e 2e 98 aa 3e 14 c5 cc 3e ca 6f c6 3e
       0.39173266 0.3331923 0.3999411 0.38757163
000040 b6 53 24 be 58 f3 d2 3c 12 29 f6 3d a7 cd a3 3e
       -0.16047558 0.025750801 0.12019552 0.31992838
000050 de b2 c6 3d e3 bb 74 bd de 6e 0b bb 5d d0 4b bd
       0.09702085 -0.059749495 -0.0021275799 -0.049759258
000060 5a d1 c0 3c 36 97 18 3d 7c b8 c3 3b 69 78 d0 bc
       0.023537327 0.03725358 0.00597292 -0.025448041
000070 7e be a2 3d c0 8e b4 3c
       0.0794649 0.022040725

word_gru.weight_ih_l0_reverse f4 [30, 300]
000000 c7 11 64 b9 e5 c9 6a bb 39 c1 a0 3b 11 ff da 3b
       -0.00021750397 -0.0035825905 0.0049058464 0.0066832383
000010 b1 89 dd 3b 2c 3f 00 3c 2f 64 a4 3b 81 68 6f ba
       0.006760799 0.007827561 0.0050168256 -0.0009132699
000020 45 2a 35 bb ef 7f ce 3c ba 8a 29 3b 8b 1c 8e 3b
       -0.0027643603 0.025207488 0.002587004 0.0043368987
000030 27 43 ef 3b 43 78 65 3a 46 bb 07 3c 7a c2 00 bb
       0.0073017064 0.0008753577 0.008284396 -0.0019647167
000040 7e 5f 5c 3b 8f 3b 0c bc 0f 0d 1f bb d2 76 8c bb
       0.0033626254 -0.008559122 -0.0024269258 -0.0042866254
000050 da dc 5d bc a8 c6 c1 3b fc 12 bf 3b d6 d6 b8 39
       -0.013541425 0.0059135742 0.0058311205 0.0003525528
000060 4b fa d1 3b 19 34 90 3b f4 0a 54 3a e7 f0 80 bb
       0.006408011 0.004400742 0.00080887903 -0.003934968
000070 19 3d b9 bb 0a 9d d7 bb 71 ca 0a b9 a1 6b b8 3a
       -0.0056530354 -0.00658 -0.00013236121 0.0014070162
000080 1c 91 17 bc e0 67 33 3a 4c 3c b9 bb 19 4d e0 3b
       -0.009250905 0.00068437867 -0.00565294 0.0068451283
000090 13 61 70 bb 73 7b ae b9 f9 e1 99 3b 4a c4 10 ba
       -0.0036678954 -0.00033279843 0.0046961275 -0.00055224134
0000a0 31 79 36 ba 2d e4 0b bb 52 6c d0 3b f6 10 8f 3b
       -0.0006960808 -0.002134572 0.006360569 0.0043660356
0000b0 52 0b 49 bb 7f e2 da ba 48 4e f0 bb aa b1 58 bb
       -0.0030676913 -0.0016699581 -0.0073335506 -0.003306488
0000c0 6d 4b e1 ba 40 2c 08 3c fc 77 e9 ba c2 c4 80 bb
       -0.0017188616 0.008311331 -0.0017812247 -0.0039297054
0000d0 55 de 0c bc b5 e2 e8 bb 36 cc d3 ba ff 4f 22 bb
       -0.00859793 -0.0071071037 -0.0016158882 -0.002476692
0000e0 9a 34 4a bb 7f f2 19 3a 99 ed 0e bb b1 a2 28 bc
       -0.0030854107 0.00058726216 -0.00218091 -0.010292695
0000f0 98 38 98 3b 66 54 9a bb f5 5d 9b 3b d3 d5 86 38
       0.0046454184 -0.004709768 0.004741425 6.429446e-05
000100 c1 d5 2f bb 23 fa 89 ba a2 22 19 3c 21 1f 82 3b
       -0.0026830288 -0.0010526817 0.009346636 0.003970996
000110 16 ae 83 ba c5 83 9f ba 6e 18 cf bb ed 1c c0 3b
       -0.0010046388 -0.0012170008 -0.006320051 0.005862823
000120 9f 30 af ba fc 65 71 bb e8 8a e8 3b cb e6 bf ba
       -0.0013365931 -0.003683447 0.007096637 -0.0014640925
000130 9d 67 e1 3b 02 9c 03 bc d0 4b 48 b9 3e fc f1 b7
       0.0068788067 -0.008032801 -0.00019101729 -2.8846898e-05
000140 b9 04 e1 3b 4a 52 06 ba d4 dc 7a bb c4 9c c9 3b
       0.006867018 -0.00051239564 -0.0038278596 0.006152721
000150 40 6e 14 3c 14 af 27 3c f8 3e 1d bc bf c6 ef ba
       0.009059489 0.010234613 -0.009597532 -0.0018293484
000160 9d 4f f8 ba 23 04 e4 bb 25 cb 4c 3c 1d 79 00 bb
       -0.0018944625 -0.006958501 0.012499605 -0.001960344
000170 11 3c 36 bb c1 bf d7 bb dc 25 3c bb 2e 50 1e b8
       -0.0027806798 -0.006584138 -0.002870909 -3.774481e-05
000180 d5 d1 8d 3b fe 53 0b 3b 25 a8 27 bc 7e 58 49 3b
       0.0043279924 0.002125978 -0.01023296 0.0030722911
000190 ea 15 c6 bb a7 0e fb bb 59 9d fa bb d8 5d a5 ba
       -0.006045093 -0.007661659 -0.007648152 -0.0012616469
0001a0 62 a9 54 bc e4 2e 55 bb 74 14 da bb ac 47 7d 3b
       -0.012979837 -0.003252917 -0.0066552702 0.0038647456
0001b0 95 8f 8e b9 5e 79 09 3c eb f8 35 bb 0d bc 86 bb
       -0.00027191328 0.008390753 -0.0027766775 -0.004111773
0001c0 cf d6 d2 3a 4b f6 33 bb d3 da 0a 3c 09 90 86 3b
       0.0016085746 -0.0027460034 0.008475023 0.004106526
0001d0 09 4a 99 3b d1 98 e9 3b 29 03 bb bb aa 1e 55 bc
       0.004678015 0.007128813 -0.005707164 -0.013007799
0001e0 c8 b3 2a 39 93 cd 4e bb 7c 0c fa bb 96 a9 61 3b
       0.00016279437 -0.0031555637 -0.007630883 0.0034433356
0001f0 84 b8 53 bb 4e 81 e3 3b 99 3c 19 bb 32 77 4b 3b
       -0.0032306025 0.0069429046 -0.0023382066 0.0031046388
000200 87 26 2a 3b df bb f2 3a 40 16 d1 bb b3 b6 23 3c
       0.0025962905 0.0018519125 -0.0063808262 0.009992289
000210 f6 e6 66 3a 83 a2 28 3b 52 72 d6 b8 57 32 84 3a
       0.00088082196 0.002573163 -0.00010225609 0.0010085803
000220 b1 29 92 39 da 74 4b bb 3d f0 18 bb 6f 36 42 3c
       0.00027878353 -0.003104499 -0.0023336553 0.011853798
000230 98 cd d5 3a 51 52 3c bb a4 dc 94 ba 11 5a 8e 3b
       0.0016311882 -0.0028735588 -0.001135726 0.004344233
000240 61 45 0b bc 26 96 6a 3b 15 9e 85 bb 6a 41 19 3b
       -0.008500428 0.0035795062 -0.0040776827 0.0023384937
000250 71 2f 95 bb 39 e1 04 3b 56 b0 11 3b 8e d3 da 3a
       -0.0045527746 0.0020275845 0.0022230349 0.0016695128
000260 ef 66 73 ba 20 4a df 3b 21 3e 05 3c 77 d0 8f bb
       -0.00092850527 0.0068142563 0.0081324885 -0.0043888646
000270 6d 52 60 bc be 1d 6f bb a9 ca 31 bb dc 5b 20 bb
       -0.013691527 -0.0036486234 -0.0027128852 -0.0024468815
000280 73 0d 60 3a 16 95 6a bb 65 5b 27 bc df e2 53 bb
       0.0008546926 -0.0035794429 -0.010214661 -0.003233127
000290 ce aa 6b bb 74 5e 9e bb a4 bc 28 ba 67 6b c7 bb
       -0.0035959962 -0.004833037 -0.0006436801 -0.0060858014
0002a0 eb 2e ab 3a 29 b0 1c 3c 97 c9 d5 3b de 34 36 3b
       0.0013060247 0.009563484 0.0065242755 0.0027802507
0002b0 d5 33 01 bc c1 2d 11 3c f5 c5 41 3c 24 b0 19 bb
       -0.007885893 0.008861006 0.011826982 -0.0023450935
0002c0 dc 55 fb 39 8e f3 89 ba cb c6 f9 ba a1 63 0f 3c
       0.0004793842 -0.0010524855 -0.0019056437 0.008751781
0002d0 26 e1 47 bc 95 35 56 bb 08 be 4a 39 f0 ab c5 bb
       -0.012199676 -0.0032685746 0.00019335013 -0.0060324594
0002e0 c4 d0 53 3b bb 07 2b 3a a7 ee ca 3b 1f 87 66 ba
       0.003232048 0.0006524284 0.0061930004 -0.00087939383
0002f0 da 8c de bb a1 ed 76 3c fc 2c ba ba 77 ad 91 3b
       -0.006791693 0.015071304 -0.001420408 0.0044457274
000300 4e fb c7 bb ce d1 82 ba 33 94 13 bc 0b 1a ec bb
       -0.006102956 -0.000998074 -0.009007501 -0.007205253
000310 3d 9b ae 3b 15 bb 79 bb 2f 32 6c b9 de f1 93 ba
       0.0053285644 -0.0038105894 -0.00022525409 -0.0011287292
000320 26 0e 01 3c 31 98 91 ba d7 78 de 3b 7a 23 08 3c
       0.007876908 -0.0011107979 0.0067893076 0.0083092395
000330 a5 25 f1 bb 8c 9b 3b 3b f6 5d 67 3b aa d7 d7 3b
       -0.007359224 0.0028626649 0.0035303808 0.0065869885
000340 e1 8f 40 38 76 f3 b4 3b 48 3c 1e bb 2a 70 30 bc
       4.5910365e-05 0.005522187 -0.0024144817 -0.0107689295
000350 4c 4e df ba b1 42 d8 bb e5 36 99 3b 29 93 74 bb
       -0.0017036884 -0.006599747 0.0046757334 -0.003731916
000360 04 60 76 bb 95 b7 99 3b cf 44 12 3a 54 e9 d6 bb
       -0.003759385 0.004691074 0.0005579711 -0.0065585766
000370 57 c2 22 3c 12 df be bb 21 4f ea bb 1d 25 04 b9
       0.00993403 -0.005824932 -0.007150546 -0.00012602327
000380 b3 93 8d bb 13 30 7e 3b 4f af 04 3a 70 86 39 3c
       -0.0043205856 0.0038785979 0.00050615234 0.011323556
000390 b2 36 e5 3b 8f 02 57 3b b7 02 ad b9 24 33 16 bb
       0.0069950456 0.0032807922 -0.00032999154 -0.0022918666
0003a0 39 49 f0 ba 24 4d 5e 3b ac a9 38 bb 02 25 fb ba
       -0.0018332369 0.003392049 -0.0028177304 -0.001916081
0003b0 4a 3c 0e 3a 37 66 33 3a 62 6e ab 3b 09 72 af 3b
       0.0005425854 0.00068435393 0.0052316645 0.00535417
0003c0 1d f4 15 bb 31 84 8e ba 22 a1 a2 3a 04 7d 48 3c
       -0.0022881099 -0.0010873136 0.001240764 0.012236837
0003d0 d7 0a f8 3a b4 c8 82 ba fb cc a3 3b 3a 60 a7 bb
       0.0018924129 -0.0009978027 0.004998801 -0.0051079066
0003e0 4f fc d7 bb c1 fe 24 bb e2 8f 9d 3a 9d 56 b1 3a
       -0.006591357 -0.002517626 0.001202103 0.0013529841
0003f0 6a 1b 33 3c fa fd e2 b9 1f 70 e8 bb 2d 55 5c bb
       0.010931829 -0.00043295306 -0.007093444 -0.0033620105

word_gru.weight_hh_l0_reverse f4 [30, 10]
000000 b4 2d 46 3a b0 a8 b8 bc 7b 07 77 bc e8 33 19 bc
       0.0007559911 -0.022541374 -0.015077467 -0.009350754
000010 16 be 1e 3c 2f 25 43 bb 97 ae 39 bc 12 9b e9 3b
       0.009688875 -0.0029776802 -0.011333129 0.0071290815
000020 11 03 26 bc 41 bc a2 3c 67 a7 41 ba b2 56 4f 3b
       -0.010132567 0.019865157 -0.00073873106 0.0031637368
000030 93 5a 8f 3b 15 a6 f8 bb 20 0b 91 bb 6c 3d ae bb
       0.004374811 -0.007588158 -0.004426375 -0.0053173807
000040 c0 c4 5b 3b c2 ad d0 3b f4 ea 7e bc 03 05 a4 bb
       0.003353402 0.00636837 -0.015558947 -0.0050054803
000050 86 d2 2e 3a ae cb 8d 3b a8 4c 9f 3b 11 be 54 3a
       0.00066689437 0.004327259 0.004861433 0.00081154803
000060 8c 7a 08 bb e6 1c e3 b8 8b d9 e9 3a 6b 28 50 3b
       -0.0020824997 -0.00010829586 0.0017841322 0.0031762372
000070 6b 1f 24 3b 1d 28 18 bb 60 1a 85 3c 02 e5 9b 3b
       0.002504314 -0.0023217269 0.016247928 0.0047575245
000080 15 09 3d 3c 61 72 ef bb 37 48 1b bb 9d 1e f7 3c
       0.01153781 -0.007307336 -0.0023694166 0.030165965
000090 f6 17 14 bd 85 19 75 bc 6d 1a 2c bc 29 a1 f0 3b
       -0.036155663 -0.014959698 -0.010504347 0.0073434305
0000a0 b6 e5 42 bc 41 71 ee bb a0 c8 23 bc 41 27 95 3b
       -0.011895588 -0.0072766845 -0.009996563 0.0045517986
0000b0 e1 c7 47 3c 97 4c 8d 3c 8a 33 89 bb 67 6a 56 3b
       0.012193651 0.017248435 -0.004187052 0.003271723
0000c0 3a e0 ce 3b 49 7c 0f 3c e9 56 34 bc 7e 7b bc bb
       0.006313351 0.008757659 -0.011007049 -0.005752026
0000d0 55 1f 97 3b 1d fe f3 3b 40 c2 8f 3c 4e 05 01 3d
       0.0046118894 0.007446064 0.01754868 0.0314992
0000e0 a1 2e 77 3b 50 80 c5 3a 07 09 d8 3b 73 e7 09 bb
       0.0037717002 0.0015068147 0.006592873 -0.0021042496
0000f0 90 9a 2c bb 5d 09 53 bc 1c 58 52 bc 5f a0 a3 3b
       -0.0026337244 -0.01288065 -0.01283839 0.004993483
000100 5e 22 2b ba e6 07 9c bc 21 44 23 3b 61 e3 e8 bb
       -0.00065282534 -0.019046735 0.0024912434 -0.007107184
000110 1e ab e8 3a c5 9f 2a bc e2 73 d2 3b 09 bd 9d bc
       0.0017751192 -0.010414069 0.0064225057 -0.019255178
000120 dd 56 b2 bc 9f ce 49 3c a9 10 86 ba a7 30 f9 bb
       -0.021769935 0.012317329 -0.0010228354 -0.0076046768
000130 80 17 34 3c e0 7e 4e 39 a4 37 16 3c 2b 92 0e 3c
       0.010991931 0.00019692956 0.009168539 0.008701841
000140 4c 25 10 bc c4 d1 80 bb 6c 7a ed 3c ea 34 0f bb
       -0.008797955 -0.003931256 0.02898904 -0.0021851608
000150 17 3f cd 3b 86 88 49 bc f6 bc fc 3c 5c e6 2c 3a
       0.0062636244 -0.012300616 0.030851822 0.00065956055
000160 18 d9 8b bc 8d b2 a0 3c 17 64 31 ba b4 c3 5a 3d
       -0.017071292 0.01961639 -0.0006766929 0.053409293
000170 80 54 b4 3c 89 80 ba bc d0 0a 97 3a 5d d5 17 3d
       0.022012949 -0.022766368 0.0011523608 0.037068713
000180 09 0b 1c bd ab 0f 14 bb 31 68 fd 3c f1 eb bb bc
       -0.03809646 -0.0022592347 0.030933471 -0.022939654
000190 08 1b 5f 3e b4 d5 12 3c 0d 60 8a 3e 8c 81 0a 3e
       0.21787655 0.008962084 0.27026406 0.1352598
0001a0 47 17 2b 3e 17 9b c2 be 93 1e a5 3d bf 55 98 be
       0.16708098 -0.3800895 0.08062472 -0.2975292
0001b0 2d e6 86 3d f7 05 26 be cc d1 d3 bc 83 85 80 bd
       0.06586871 -0.16213213 -0.025856875 -0.06275465
0001c0 ca 7d ba bc f8 12 90 3c 94 f4 99 bd 2d 48 fb bc
       -0.022765059 0.01758717 -0.07517353 -0.030674065
0001d0 3c a9 a5 3d a4 f8 4a 3d 65 c9 dd 3c 36 a9 b3 3c
       0.080889195 0.04955353 0.027073571 0.021931272
0001e0 fc 42 2f 3d 10 f6 f5 bd b1 93 63 bd cb 27 fa 3c
       0.04278849 -0.12009823 -0.05556077 0.030536553
0001f0 31 f7 8c 3d 1d 4b ba bd 03 9e 7f 3c 07 7b 1e 3d
       0.068830855 -0.09096358 0.015601638 0.038691547
000200 c0 bf 4d bc 0a d9 b5 3d ed 0a 91 bd 7d 26 12 3e
       -0.012557924 0.088792875 -0.07082162 0.14272495
000210 72 6c 87 3e 6a 68 b9 3d 68 67 e1 bd e9 51 f1 3d
       0.26449925 0.090531185 -0.11006051 0.11783201
000220 b7 5b 16 be b3 7c 8d be c6 e0 ea 3d d7 a7 82 bd
       -0.14683424 -0.276342 0.114686534 -0.06379669
000230 e9 59 5f 3d 06 8e 27 be b2 63 11 be 9e 36 3f be
       0.054529104 -0.16362771 -0.14198187 -0.18673179
000240 c7 a4 4d 3e 70 65 8b bd da 26 f0 3d 88 4c 62 bd
       0.20082389 -0.06806457 0.1172616 -0.055248767
000250 90 13 29 be 87 0d 9b 3d 5d d6 69 3e e6 60 a8 3c
       -0.16511369 0.075709395 0.2283568 0.020554017
000260 a5 88 cd bd 63 da 61 3e 68 1b ea 3e 6a 5d b4 be
       -0.100358285 0.22055964 0.45724034 -0.3522752
000270 4e 86 61 3e 5a cc eb bd 6f 2e 85 3c 6c dd ac be
       0.2202389 -0.11513586 0.016257493 -0.3376268
000280 04 0b 26 3e 0a 43 1e 3d 77 f7 a7 3d fb 08 53 bd
       0.1621514 0.038638152 0.08201497 -0.051522236
000290 e2 8d c6 3e 4f 86 4f 3e 46 d8 45 3e f8 93 8f bd
       0.38780123 0.20266078 0.19320783 -0.07010645
0002a0 0c 1f f2 3d 99 b6 ba bd cd 07 36 bd 25 89 87 3e
       0.11822328 -0.09116859 -0.044441033 0.2647182
0002b0 b8 12 85 3e c6 1e 3b be 31 bb 70 3d ca 2d 82 3c
       0.25990844 -0.18273458 0.05877227 0.015890975
0002c0 de 8e 3c 3d 3d ca 38 3c 7b 3a 60 be b9 36 8a be
       0.046034686 0.011278686 -0.21897309 -0.26994875
0002d0 7e 78 39 3d 4a 5e 1b 3e b2 ce ec 3e 9a 2d a7 3c
       0.045280926 0.15172687 0.46251446 0.020407487
0002e0 3d 97 40 3e 7f cf 55 bd 59 db ad 3e 10 34 ae be
       0.18807693 -0.052199837 0.3395641 -0.34024096
0002f0 fe 11 d6 be 2b c0 df be 95 45 f3 3e 47 46 a4 3d
       -0.41810602 -0.437013 0.47514024 0.08021217
000300 5a e2 ed bc 9b ce 0e be b2 0e 48 3e a2 b2 c2 be
       -0.029038597 -0.13946001 0.19536856 -0.3802691
000310 63 34 c5 bd 57 f2 92 bd c1 4b 04 bf f1 fd 76 bd
       -0.096291326 -0.07175129 -0.5167809 -0.06030077
000320 de c4 7d bd a2 81 73 bc de b2 5c bb 61 a6 83 bd
       -0.061955325 -0.01486245 -0.003367595 -0.06428219
000330 27 0d 78 bc 23 fd ad 3d 7e bf 91 bc 52 af 84 3d
       -0.0151398545 0.084955476 -0.017791506 0.06478752
000340 63 d7 98 bd eb c0 95 3c 2c dc 71 bd 20 a0 02 3d
       -0.07462957 0.018280467 -0.059047863 0.03189099
000350 de 2a 9a bd ce e0 98 bd fb a0 75 bd b9 86 21 3d
       -0.075277075 -0.07464753 -0.059967976 0.039435122
000360 fe 6c 07 bd b9 f0 07 bc 92 63 09 3e 71 06 cb 3d
       -0.033062927 -0.008297139 0.1341689 0.09913338
000370 e3 73 c0 bc bb 28 9f 3b 79 0a ea 39 67 d5 99 bb
       -0.02349276 0.0048571504 0.0004463976 -0.004694629
000380 29 78 25 3d ab 9d 85 bd a0 9b ae 3d 25 7c f7 bc
       0.040397797 -0.065242134 0.08525777 -0.030210564
000390 f0 e0 eb bc 33 33 71 bc f3 07 61 3e 5f c4 02 3e
       -0.028793782 -0.0147216795 0.21975689 0.12770222
0003a0 d0 c3 3b 3e 2c 3b 82 3e 1a 23 0f 3d d0 36 c0 bd
       0.18336415 0.2543577 0.034945585 -0.09385455
0003b0 a9 2b 7b 3c ce 40 fa 3c f8 a8 81 3d 72 7c 96 bc
       0.015330234 0.03054848 0.06331056 -0.018369887
0003c0 21 b8 ac 3b a5 f4 44 bd 8e 45 2c bc 0d 51 66 3d
       0.0052709733 -0.048084874 -0.01051463 0.05622964
0003d0 9d 99 70 3d fa dd 0c 3e de 0b 53 3d 8b d7 58 3d
       0.058740247 0.13756552 0.05152499 0.052939933
0003e0 ed 20 8f bd cb 86 dd bd f3 67 d3 3d 00 1f 36 3d
       -0.06988702 -0.10816725 0.10322561 0.044463158
0003f0 0c 7f 9b 3c 59 83 34 3e 26 f9 04 3e cd ce 07 bc
       0.01898148 0.1762823 0.12985668 -0.008289051

word_gru.bias_ih_l0_reverse f4 [30]
000000 7e 99 0c bd 0c 1b 2c 3c d6 59 44 3b bb 06 15 3c
       -0.03432607 0.010504495 0.0029960773 0.009095843
000010 23 f0 4b bc f1 97 de bb a0 67 4f bc e1 16 ca bc
       -0.01244739 -0.006793015 -0.0126589835 -0.024669113
000020 ab 39 9c bb cd 4b 19 3d 98 99 53 3e cc c6 19 3d
       -0.0047676167 0.037425805 0.2066406 0.037543103
000030 71 7e f8 bd e0 ab 5b 3e c1 5d ea bd 14 9c 00 3e
       -0.12133492 0.21452284 -0.114436634 0.12559539
000040 77 7e 1c 3e 3e 26 f8 3e 69 5b d9 3e 4d de 6d 3e
       0.15282618 0.48466676 0.42452553 0.23229332
000050 4a 75 74 be a0 bd ad 3e a8 d5 c2 3d bb 8e f8 3c
       -0.23872867 0.33933735 0.09513408 0.030341497
000060 64 ec 0b 3e 59 82 b2 3e 1f 4c c5 bd cd 7c 95 bd
       0.13664395 0.34865072 -0.096336596 -0.072991945
000070 fe 4c 9f 3e bf de 10 3c
       0.31113428 0.008842169

word_gru.bias_hh_l0_reverse f4 [30]
000000 1f 99 0c bd 09 1b 2c 3c ea ec 44 3b a8 06 15 3c
       -0.034325715 0.010504493 0.0030048438 0.009095825
000010 2d f2 4b bc d4 aa de bb 12 68 4f bc e4 16 ca bc
       -0.012447876 -0.0067952666 -0.01265909 -0.024669118
000020 7f 3d 9c bb e8 4a 19 3d 7a 9f 56 3e d1 bf 19 3d
       -0.004768073 0.03742495 0.20959273 0.037536446
000030 51 7e f8 bd 0d 52 5b 3e a0 63 ea bd c7 9f 00 3e
       -0.12133468 0.21418019 -0.11444783 0.1256095
000040 4b cf 1c 3e 2f 6a f6 3e 09 8b d9 3e 99 3e 76 3e
       0.15313451 0.48127887 0.42488888 0.24047317
000050 0b 39 16 bd d1 5b 20 3d 2e 95 6b 3c 56 3b 7d bd
       -0.036675494 0.039150063 0.014378829 -0.061824165
000060 ff e6 58 bd ed 3c 80 3d f4 1a 47 bd 54 8b 03 3b
       -0.05295467 0.06261621 -0.04860969 0.002007206
000070 ab dc a3 3d da 1b e2 3d
       0.080010734 0.110404685

word_att_lin.weight f4 [20, 20]
000000 7f 15 73 ba 11 f3 73 3b ad f0 96 bb 70 d5 85 b8
       -0.00092729175 0.0037223736 -0.0046063275 -6.38169e-05
000010 08 20 84 3b b7 94 3b bb 51 94 69 b9 88 dd 08 ba
       0.0040321387 -0.0028622577 -0.00022275864 -0.0005220999
000020 24 d8 9f ba aa 38 50 3b 86 96 c0 bb 10 6a 63 3b
       -0.0012195152 0.0031772056 -0.005877319 0.003470067
000030 fd 0d 1d ba b8 7b a8 bb ff b1 96 bb c4 c6 d4 3a
       -0.0005991159 -0.0051417015 -0.0045988555 0.0016233553
000040 98 da 00 bc 49 be 81 39 b7 ea ba b8 aa f7 85 3b
       -0.007864617 0.0002474657 -8.91289e-05 0.0040883617
000050 77 66 85 bd a4 6c 7e be a3 28 1f bd b0 9c 41 bd
       -0.06513684 -0.2484613 -0.038857114 -0.04726857
000060 1a ab a9 3d b1 bf 9a bd 61 bd 00 3e ed f1 93 be
       0.08284588 -0.075560935 0.12572242 -0.28895512
000070 26 a9 b4 bd 6d af 0e 3e d5 fb 19 be 43 49 67 3e
       -0.08821325 0.13934107 -0.15037473 0.22586541
000080 86 1e 01 bd 0d 81 57 be 9f 01 77 be 0d 32 c4 3c
       -0.03152325 -0.21045323 -0.24121712 0.023949647
000090 03 e2 0f be 8b 68 ca bc c9 91 f9 b9 d9 f0 f4 3e
       -0.1405106 -0.024708053 -0.000476016 0.47840002
0000a0 a6 6b 94 bc 4d a0 ae bd f6 41 10 bc 83 7d 42 bc
       -0.018117737 -0.08526669 -0.008804789 -0.011870745
0000b0 2f 31 cb 3c 6a c1 36 bc 61 2b 8f 3d b0 69 ec bd
       0.024803726 -0.011154512 0.06990696 -0.11543596
0000c0 e7 5d b5 bc 74 58 61 3d 40 0b 44 bd 6d a5 b9 3d
       -0.022139503 0.055015996 -0.04786229 0.090647556
0000d0 5c 12 ed bb 20 18 60 bd 1c 9f a7 bd 71 d8 f5 3b
       -0.0072348546 -0.054710507 -0.081846446 0.0075026085
0000e0 7f 93 6b bd 39 cb 98 bb e7 a2 15 3a 65 34 03 3e
       -0.05751371 -0.004662898 0.0005708173 0.12812956
0000f0 0a 2e 92 3d 99 64 8d 3e 0e 3b 1e 3d ea d1 38 3d
       0.071376875 0.27615812 0.038630538 0.045122065
000100 be 73 bf bd 95 50 aa 3d a9 d1 f9 bd 7d a2 9c 3e
       -0.09348248 0.08316151 -0.121981926 0.3059272
000110 a1 3b ca 3d a3 65 17 be c1 dc 18 3e fc cb 79 be
       0.098746546 -0.14784865 0.14927961 -0.2439422
000120 fd df 21 3d 58 10 6b 3e 67 42 8a 3e 60 2c 1a bd
       0.039520252 0.22955453 0.27003786 -0.037639976
000130 c9 c2 10 3e fc 32 20 3d 67 9a 90 b8 af 6a 07 bf
       0.14136805 0.039111122 -6.895215e-05 -0.5289716
000140 9d b9 79 3d a4 ad 74 3e 3f 9c 04 3d 57 a7 22 3d
       0.06096803 0.23894364 0.03237557 0.03971037
000150 df af 94 bd c8 81 87 3d 8e be ff bd bc 0d 8d 3e
       -0.07260107 0.06616551 -0.12487517 0.2754954
000160 94 1e a7 3d 70 a1 09 be 52 7d 01 3e 64 b1 5f be
       0.08160129 -0.1344049 0.12645462 -0.21845013
000170 41 c4 08 3d df 60 44 3e f3 81 71 3e a3 56 9a bc
       0.033390287 0.19177578 0.23584728 -0.01884014
000180 bd d6 08 3e 52 52 c7 3c 4a 67 ea 3a 30 10 e7 be
       0.13363166 0.024331246 0.0017883566 -0.45129538
000190 47 d1 86 3d e6 9c 84 3e 68 84 15 3d 29 1d 2d 3d
       0.06582885 0.25900954 0.036503226 0.042264137
0001a0 b9 31 a9 bd 3e a2 96 3d b2 8a fb bd e5 d0 94 3e
       -0.08261437 0.07355164 -0.122823134 0.29065624
0001b0 19 76 b7 3d 64 81 0f be 9b 59 0a 3e 08 6f 6c be
       0.08958072 -0.14014202 0.13510744 -0.2308923
0001c0 cd 8a 18 3d 00 19 56 3e 05 6c 81 3e 82 4a e9 bc
       0.037241746 0.20907974 0.25277725 -0.02847791
0001d0 b1 7f 0d 3e 67 8e e8 3c 3e 99 a4 3a 74 62 fa be
       0.13818242 0.028388215 0.0012557877 -0.4890324
0001e0 ef 30 91 bd c2 e3 8c be a5 a0 1c bd 8b 35 40 bd
       -0.070894115 -0.27517515 -0.03823914 -0.046926063
0001f0 89 4a b9 3d 3c d3 ad bd b7 f0 fb 3d c7 53 9c be
       0.090474196 -0.084875554 0.12301772 -0.30532667
000200 22 30 c9 bd 3b e2 17 3e ca 00 17 be f8 41 7a 3e
       -0.09823634 0.14832394 -0.14746395 0.24439228
000210 56 35 22 bd ab 5b 6c be fc 4d 8a be 77 b1 02 3d
       -0.039601646 -0.23081844 -0.27012622 0.031907525
000220 2e 6b 13 be c7 e8 16 bd 01 93 7d ba 7c 69 07 3f
       -0.14396355 -0.036843088 -0.00096730894 0.5289533
000230 72 29 34 3d 17 71 40 3e 1a c8 ca 3c 07 1c e3 3c
       0.043984838 0.1879314 0.024753619 0.027723325
000240 b6 53 4d bd 59 d9 20 3d 93 9e f4 bd d9 ae 6c 3e
       -0.05012866 0.03926978 -0.11944308 0.23113574
000250 2b 42 6b 3d b5 07 e1 bd c3 dd cc 3d ea d6 38 be
       0.05743615 -0.10987798 0.10003235 -0.18050733
000260 56 37 ac 3c cf 86 07 3e 45 cf 31 3e ad 85 48 bc
       0.02102248 0.13235019 0.17364223 -0.012238902
000270 bb f6 dd 3d 00 16 06 3c 5f ef 19 39 0a 93 a7 be
       0.10838076 0.008183956 0.0001468039 -0.3272937
000280 52 94 b8 38 f6 ff 80 39 49 7d 93 39 d8 89 ca 37
       8.8014305e-05 0.00024604768 0.0002813137 2.4144465e-05
000290 b8 e1 99 38 77 09 ad 38 fb b4 cb b9 10 da c0 39
       7.337652e-05 8.251046e-05 -0.00038854018 0.00036783563
0002a0 61 12 ec 38 fc 37 9f b9 f9 9c 32 39 e8 07 c9 b9
       0.0001125678 -0.00030368555 0.0001703388 -0.00038343598
0002b0 66 c1 e8 37 38 fe eb 38 d6 c4 89 39 45 af 90 39
       2.7746613e-05 0.00011253025 0.0002627733 0.00027596406
0002c0 76 66 d3 38 78 22 c1 b8 7e 34 00 b8 ab 36 ad b9
       0.00010080349 -9.2093775e-05 -3.0566465e-05 -0.00033037862
0002d0 19 e4 74 bd 1e 1e 79 be ad 5c 18 bd 5f 9b 3b bd
       -0.059787843 -0.24327895 -0.037197758 -0.04580247
0002e0 0a aa 94 3d 67 34 8b bd c4 8c 00 3e 83 a7 8d be
       0.07258995 -0.06797104 0.12553698 -0.27666864
0002f0 7a 5f a5 bd 54 c3 05 3e d5 1f 06 be cd a6 5c 3e
       -0.08074851 0.13062793 -0.1309808 0.21548004
000300 a7 c1 02 bd 87 32 42 be d8 14 68 be fa 2f 9b 3c
       -0.031922963 -0.18964587 -0.22664201 0.018943775
000310 cf 46 12 be a3 6a fd bb a1 a4 39 3a fc ed e4 3e
       -0.14284824 -0.0077336594 0.00070817216 0.44712818
000320 e4 50 82 3d 4c 5f a2 3d 41 5d 38 be 09 8d 58 be
       0.06363085 0.07928333 -0.18004324 -0.2114755
000330 6f d6 08 3f 33 b4 08 3e 7a 20 9c 3e d9 53 85 be
       0.534522 0.1334999 0.30493528 -0.26040533
000340 ca dd 75 3c 13 cf b6 3e 39 cb 03 3d 47 89 81 3e
       0.015006492 0.3570486 0.03217623 0.25300047
000350 9d df d8 3d 1c 12 ae bd e4 3f 3d be 36 5c a9 3e
       0.10589526 -0.08499548 -0.18481404 0.33078164
000360 27 5e aa be 7e 26 84 3e 41 22 15 3e ae c5 a7 3e
       -0.33274958 0.25810617 0.14563848 0.32768005
000370 09 e5 01 3c cb 57 1f 3d 85 d0 5a 3b 50 ce 8a 3b
       0.007928141 0.038902085 0.0033388447 0.00423602
000380 5f 00 55 bc 7a 4e 81 3b 0a 43 07 bd a3 c3 53 3d
       -0.013000577 0.0039461227 -0.033022918 0.051700246
000390 90 25 1a 3c ee ce cd bc 2e 51 ca 3c da 59 29 bd
       0.00940837 -0.025123086 0.024696913 -0.041345455
0003a0 b6 7a 74 3b bd 57 d7 3c 32 87 21 3d cd 28 9b bb
       0.0037304587 0.026286954 0.039435573 -0.0047350884
0003b0 2f 8b e9 3c f6 42 86 3b 40 ce 8f 3a 5d f8 4e bd
       0.02850875 0.004097338 0.0010971501 -0.050529826
0003c0 68 69 9b 3d 62 bb 95 3e d0 63 32 3d 3f c6 49 3d
       0.07588464 0.29244524 0.04355222 0.049261328
0003d0 6a f5 d5 bd 4c 81 c1 3d 9b ee f2 bd 8d 28 a5 3e
       -0.104472 0.094484895 -0.11861917 0.322575
0003e0 41 72 db 3d dc ce 1e be 35 fe 2b 3e 4b 1c 83 be
       0.107151516 -0.15508598 0.16796191 -0.25607523
0003f0 7c 57 1f 3d fa 76 7f 3e e8 9b 8d 3e 49 47 33 bd
       0.03890179 0.2494773 0.2765801 -0.043769155

word_att_lin.bias f4 [20]
000000 7f a1 b7 b5 5e b6 05 3d 30 cf df ba 80 6b 3d bd
       -1.3681564e-06 0.032644622 -0.0017075296 -0.046245098
000010 33 e2 f5 bc 0b e1 1a bd c5 51 41 3d 65 f5 cd bb
       -0.030015087 -0.037812274 0.047197122 -0.006285357
000020 77 6e c3 2f ce 1d e5 3c 8e 8d c2 3d 0c df a3 39
       3.5548783e-10 0.027968314 0.09499656 0.00031255966
000030 02 04 54 bd 48 28 76 2d 30 01 0c 3d e4 e5 79 39
       -0.051761635 1.3992425e-11 0.03418082 0.00023832131
000040 36 4c 75 3d 8c 79 f0 3c 47 54 1c bc 2f f6 4c 38
       0.059887134 0.029354833 -0.009541578 4.8866666e-05

word_att_context_lin.weight f4 [1, 20]
000000 16 1c b4 bb db 6a 2e bf 60 1a 2f be b0 74 44 3f
       -0.005496512 -0.681318 -0.17099905 0.7674055
000010 55 c4 22 3f 65 d4 32 3f d4 c2 44 bf 86 5c e3 3e
       0.6358083 0.6985534 -0.76859784 0.44406527
000020 6a f7 30 3a 7c 2c 21 bf eb 53 69 bf 11 32 96 3d
       0.0006750735 -0.629585 -0.91143674 0.07333768
000030 1f 87 53 3f 24 65 c9 37 2d 1e 2b bf 08 98 86 3d
       0.82628053 2.4008164e-05 -0.6684292 0.065719664
000040 3a ff 58 bf 8a fc 22 bf dd 4f f0 3e 10 de 13 3d
       -0.84764445 -0.63666594 0.4693593 0.036100447
