14_best_model_sent.pt (torch_old, 51954 bytes, 15 tensors)

sent_gru.weight_ih_l0 f4 [30, 20]
000000 6c ac 45 3e 53 7c 0f be 0d 93 48 bd c5 3d 2a be
       0.19304055 -0.1401227 -0.048968364 -0.16625126
000010 14 9c 14 bd 49 e7 c8 bc 1c 00 10 3e 9f 92 1d be
       -0.03628166 -0.024524348 0.14062542 -0.15387963
000020 7a a4 56 3e 96 cb 10 bc 67 27 ad bd 33 7c 83 3e
       0.2096118 -0.008837601 -0.08454781 0.25680694
000030 7a 74 39 3e 63 8b 67 3c 17 a9 5f 3d e3 e1 e3 3c
       0.18110839 0.0141323535 0.054604616 0.027817672
000040 2a 29 16 3d 26 4b 4b bc 69 ca 12 bd 80 9e 22 be
       0.03666035 -0.0124080535 -0.035837565 -0.15880775
000050 bc 88 20 3e d6 b1 03 be d8 33 79 bd 50 5c 34 bb
       0.1567716 -0.12860808 -0.060840458 -0.0027520843
000060 fb 93 56 bd 07 16 86 bb eb 32 78 3d 2e 84 a2 bd
       -0.05238722 -0.0040919813 0.060595434 -0.079353675
000070 d3 f5 20 3e cb b7 6b bd e1 65 9d bc e8 90 dc 3d
       0.15718774 -0.057548326 -0.019213619 0.10769826
000080 2c a4 f9 3d 37 2e d9 3c be 12 5c 3d b5 41 be 3b
       0.121895164 0.026511295 0.05372881 0.0058061727
000090 f5 20 30 3c 03 a5 5f bd fa d8 39 bc d0 4b f9 bd
       0.010750045 -0.054600727 -0.011343235 -0.12172663
0000a0 0b e0 c0 3d 3c 9b d6 bd f8 51 99 bc 5a 6a 12 3d
       0.09417733 -0.10478827 -0.018715844 0.035745956
0000b0 4f de 79 bd e5 da ed 3c 9d 4e f5 3c d2 89 82 bd
       -0.061003026 0.029035041 0.029944712 -0.063739434
0000c0 ca aa ab 3d 2b 03 8f bd 77 78 4e bc 77 34 71 3d
       0.08382185 -0.06983026 -0.012601963 0.058887925
0000d0 1c 4e 98 3d 48 67 9a 3c b9 d9 d0 3d a6 2d 48 3c
       0.07436773 0.018848076 0.10197777 0.012217915
0000e0 c9 e4 30 3c a7 f0 75 bd f3 12 ea bc 18 cf d5 bd
       0.010796734 -0.060043957 -0.028573489 -0.104398906
0000f0 e1 97 89 3d 18 4c 8d bd 2b 26 24 3c 48 4a a3 3c
       0.06718422 -0.06899279 0.010018866 0.019932881
000100 83 8f 8a bd fd 73 5a 3d dc d6 77 3c 03 9e ca bd
       -0.06765654 0.05333327 0.01512691 -0.098934196
000110 53 45 8d 3d 86 55 4f bd f4 65 ab bc 83 54 c2 3d
       0.06897988 -0.05061867 -0.020922638 0.094887756
000120 d1 e9 34 3d c1 cd 1b 3d cc 6b a1 3d 67 8a 69 3b
       0.044168297 0.03803802 0.07881889 0.0035635473
000130 48 3e 98 3c 54 7c 7a bd 0f 55 ef 3b b8 32 84 bd
       0.018584386 -0.061153725 0.007303841 -0.06454986
000140 ea 19 24 3e 65 1c 3a be f7 c3 86 bc c0 56 be bd
       0.1602551 -0.18174894 -0.016450865 -0.0929389
000150 94 28 ba bd e1 62 90 bd 43 4a 8e 3b f0 ad d8 bc
       -0.09089771 -0.0705011 0.004342349 -0.026450127
000160 0e 3d 1a 3e d6 0b 11 be cf f6 3b bc 43 cb c6 3d
       0.15062353 -0.14164671 -0.011472418 0.09706738
000170 45 44 f1 3d 00 ac a9 3c 64 04 d3 3d e8 a3 04 3c
       0.117805995 0.020711899 0.10303572 0.008095719
000180 95 be 12 bc 92 0a 05 bd 56 d1 86 3c 5b 43 18 be
       -0.008956571 -0.032480784 0.016457241 -0.14869444
000190 ad 09 22 3e b1 6a 90 bd 20 3c 2f bd 17 7f 1b bd
       0.15824004 -0.070516 -0.04278195 -0.037963
0001a0 26 c2 6b bd db 48 06 bd a1 3f b8 3d da 8a 49 be
       -0.0575582 -0.032784324 0.08996511 -0.19681874
0001b0 9e 46 16 3e 8b 82 1c 3c f1 e9 2c bd 38 6f 19 3e
       0.14675376 0.009552608 -0.04221529 0.14983833
0001c0 8e 67 17 3e a2 ab b0 3d e0 84 39 3d 26 de 37 bc
       0.14785597 0.08626486 0.045292735 -0.011222398
0001d0 93 23 11 bc eb 47 8f bb 34 e2 97 3c 41 2b fc bd
       -0.008858579 -0.004372587 0.01854048 -0.123129375
0001e0 3b 3b 38 3e 78 b5 a7 bd 6b f7 44 bd 07 0a fe bc
       0.17991345 -0.08188909 -0.04808752 -0.03101064
0001f0 a1 1a 79 bc 3f d6 26 bd 5f 99 6e 3c 87 91 fa bd
       -0.015204103 -0.040731665 0.014562934 -0.122347884
000200 50 8b 2c 3e 9f a3 1a bc de 01 37 bd 88 07 0c 3e
       0.16850019 -0.009438424 -0.044679515 0.13674748
000210 05 5f 07 3e 11 96 c9 bb 25 fc 00 3e be e8 a5 bc
       0.13219841 -0.0061519225 0.12596186 -0.020252582
000220 78 a5 35 3d 9b f3 c6 bb 9d 51 3b bd dc a8 31 be
       0.044347256 -0.0060715205 -0.04573213 -0.17349571
000230 b9 56 3a 3e a3 c8 16 be 36 47 1a bd a8 f9 8b bd
       0.18197145 -0.14724974 -0.03766557 -0.068347275
000240 26 7e ac bd 5c 33 0d bd 86 23 56 3d 06 9b 68 bd
       -0.084224984 -0.03447281 0.05227997 -0.056788467
000250 df 3a 3b 3e 35 c2 3c bd fb 17 82 bc d7 8d 50 3e
       0.18284176 -0.046083648 -0.015880575 0.20366608
000260 61 3c c4 3d 68 d0 08 bd fa 14 88 3d 19 40 21 3e
       0.09581829 -0.033401877 0.06644626 0.15747108
000270 0c b6 3f bd 25 21 aa bd da d0 22 3d dc d7 36 be
       -0.046804473 -0.08307103 0.039749958 -0.17855781
000280 e6 dd 46 3e 9c 5b 16 be 2c f4 98 bd c4 99 7a bd
       0.19420585 -0.14683384 -0.07468447 -0.0611818
000290 b9 94 cb bd 6e 10 37 bc cf e0 b5 3d 3f cc 27 be
       -0.09940476 -0.011173351 0.088807695 -0.16386507
0002a0 53 eb 46 3e 45 f3 1b bd f6 b8 d2 bc d0 cb 51 3e
       0.19425707 -0.038073797 -0.025722962 0.20487905
0002b0 03 ca 27 3e b0 57 50 3d b9 9e a8 3d a4 06 c5 3d
       0.16385655 0.050864875 0.08233399 0.09620407
0002c0 d2 56 11 bd e1 ce 51 bd f5 18 4b 3d 69 13 28 be
       -0.03548319 -0.051222686 0.049584348 -0.16413654
0002d0 b0 19 1a 3e 10 fd e9 bd b3 94 bb bc 99 ee a1 3c
       0.15048862 -0.11425221 -0.022898054 0.019767093
0002e0 b0 8c 87 bd ac e7 35 bd 5a d6 80 3d 01 a9 9b bd
       -0.06618631 -0.044410393 0.06290884 -0.07600594
0002f0 95 73 13 3e df ff ab bd 39 fc a4 bd d0 21 dd 3d
       0.1439956 -0.08398413 -0.0805592 0.10797465
000300 fd 59 e5 3d dc 81 b1 3c 6a a7 30 3d 69 17 2c 3d
       0.111988045 0.021668367 0.04312841 0.042014513
000310 ca 10 57 3d ce c9 ee bc e2 a1 c5 bc 67 8c f5 bd
       0.052506246 -0.029148962 -0.024125043 -0.1198967
000320 e3 16 1d be f5 63 63 3c e9 86 7f 3d 99 90 92 bd
       -0.15340762 0.013878812 0.06238452 -0.07156486
000330 db f4 9e bc 87 57 3a 3d 7b 4f 24 3e 74 33 33 3d
       -0.019403866 0.04549363 0.16045944 0.04375024
000340 d0 62 15 be 15 fd b2 3c 85 d1 d0 3c b7 a7 8a 3d
       -0.14588475 0.021849195 0.025490532 0.0677027
000350 14 7b ed ba b4 f9 c8 bd 51 ff 19 be 8a 0a 0a be
       -0.0018118345 -0.09813252 -0.15038802 -0.13480583
000360 dc 6b 03 be 48 f9 27 3e d7 80 c6 3d b5 a2 0c 3e
       -0.12834114 0.16403687 0.09692543 0.13733943
000370 b2 62 d6 bd 79 c0 92 3d 24 77 96 3d d8 45 65 3d
       -0.104680434 0.071656175 0.07346943 0.05597481
000380 3f be e8 3b be 29 f9 bb a4 87 af bd f7 36 80 3c
       0.007102757 -0.007603853 -0.08570793 0.01565121
000390 b7 0a f2 bd 47 8c 2c 3c 0e 75 a2 bd 4a 36 e5 bd
       -0.1181845 0.010531492 -0.07932483 -0.111919954
0003a0 72 4d e8 bd b1 a2 14 bd d9 8a 99 bd 1e 51 1b bc
       -0.113428965 -0.036287967 -0.07497186 -0.009479789
0003b0 27 dc c1 3d 6b a3 10 3d 3f c5 16 bd 42 3d e1 3d
       0.09465819 0.035312098 -0.036809202 0.10998012
0003c0 c8 b2 ac 3d 69 fd 99 bd e2 f6 ac bc 05 82 d7 3c
       0.08432537 -0.07519037 -0.021113817 0.026307115
0003d0 df 7f 81 3b aa ad 3a bd 45 fc 82 3c bd 64 b3 3c
       0.003952011 -0.045575775 0.015989432 0.021898622
0003e0 48 32 a5 3d b1 1c 08 3b 5b 4d ac 3a e4 1e 9c 3c
       0.08066231 0.0020769055 0.0013145612 0.019057699
0003f0 bd 0b 17 3d 11 2b 10 3c b4 63 36 bd 3a dc 8b 3d
       0.03687643 0.00879933 -0.044528678 0.06829114

sent_gru.weight_hh_l0 f4 [30, 10]
000000 e5 c8 a4 3b 6e c0 2d bc e6 9c 24 be 28 db 48 3e
       0.0050288313 -0.010604961 -0.16075477 0.19614851
000010 1e 7c 5a bd 94 d5 1c 3e 48 52 2d bd ac dc 47 bd
       -0.053341024 0.15315849 -0.042314798 -0.048794433
000020 77 b4 f4 3c 00 37 de bd 37 e5 8a bd e7 68 18 bd
       0.029871209 -0.10850334 -0.067820005 -0.037209418
000030 3e 01 fe bd b2 31 eb 3d b2 65 dd 3b 70 79 8d bc
       -0.12402581 0.11484088 0.006756508 -0.01726982
000040 63 6a 0b 3c 52 12 28 3d 58 50 37 bd 51 eb 20 bd
       0.008509251 0.041033097 -0.044754356 -0.039286915
000050 5b 2b 58 3c e4 b0 8f bd b0 87 b3 bd 8d 47 a0 3d
       0.0131939305 -0.07016161 -0.08766115 0.07826147
000060 fe 45 aa bc 91 e2 8d bd 05 76 80 3d 84 80 f4 ba
       -0.020785328 -0.0692798 0.062725104 -0.0018654023
000070 c9 a3 04 be fe 31 49 bc 34 6c dd 3c 46 c6 8d bd
       -0.12953104 -0.0122799855 0.027029134 -0.06922583
000080 f4 cd 9a bd 38 fe ca 3d 3f 0c b3 bd e9 46 c0 bd
       -0.07558814 0.0991177 -0.0874257 -0.09388525
000090 1c 1e 08 3e 8d 1d 58 3d 60 fa fc bd 0d a3 05 bd
       0.13292736 0.052762557 -0.12352443 -0.0326262
0000a0 4d b1 89 bc 4c 81 db bc 08 2f fc bd 7c 53 d4 3d
       -0.016808176 -0.026795052 -0.12313658 0.10367486
0000b0 e5 7e 0b bd 0d 18 43 bc 06 9c 15 3d ba 8e 91 ba
       -0.034056563 -0.01190759 0.03652575 -0.0011105158
0000c0 f9 7a a0 bd 88 8a ac bc 40 19 5e 3c 60 e8 1a bd
       -0.07835955 -0.02106215 0.013555825 -0.037819266
0000d0 40 51 d2 bd 08 e2 f2 3d c4 d4 12 3d 3e b3 0a bd
       -0.102694035 0.11859518 0.03584744 -0.033862345
0000e0 73 e1 95 3d 7b f5 7f 3d 83 ae 4c bd 4b 27 7c bd
       0.07318392 0.062489968 -0.049971115 -0.06156091
0000f0 7f 53 a8 3d 20 0a 9c bd fd a9 12 be 72 8b 0b 3e
       0.082190506 -0.07619119 -0.14322658 0.13627413
000100 67 94 72 3d c1 9f 7b 3b 2f 8a fc bc 13 6f ae bd
       0.05922356 0.0038394781 -0.03082761 -0.085172795
000110 f5 5a 97 bd 1b 50 71 bb 81 f0 27 bd 6b 9c d3 3c
       -0.073903956 -0.0036821428 -0.041000847 0.025831422
000120 8b 10 1f be 03 b7 1b 3e 64 7b ca 3c 12 c5 61 3d
       -0.15533654 0.15206532 0.02471704 0.05511958
000130 58 0e 11 bd 4e ad 76 bd d9 12 d7 bd 7f 50 3c be
       -0.03541407 -0.06022387 -0.10501642 -0.18390082
000140 52 96 79 bd 38 e8 57 3d 0b 03 1e be de 7a 29 3e
       -0.060934372 0.052711695 -0.15430848 0.16550776
000150 d9 cf 59 bd 13 0e 47 3c d9 42 05 3d 28 34 98 3d
       -0.053176735 0.012149352 0.032534454 0.07431823
000160 f8 43 51 3d 93 9e 23 be 2d 7a 54 ba 88 a1 d1 bd
       0.05109021 -0.1597846 -0.0008105364 -0.10235888
000170 be f9 03 be 91 72 e3 3d be ef 3e bd cb 29 a1 bd
       -0.12888238 0.11105836 -0.046615355 -0.078692995
000180 5d a0 18 3d a6 b5 be bc 7e ac 08 be a1 ec 98 bc
       0.03726231 -0.023279976 -0.1334705 -0.018667521
000190 3f c2 d6 3c 76 90 36 3b 23 9e d3 bd 58 b4 ac 3c
       0.02621567 0.0027857102 -0.103328966 0.021082088
0001a0 15 f2 f3 bd dd 54 4d bd 1d 2f 48 3d ed 0f 1a 3e
       -0.11911408 -0.05012976 0.048873056 0.15045138
0001b0 75 cc cb 3c 6b 79 7a bd 5b f2 2a 3d 9d 2d 53 3d
       0.024877766 -0.06115095 0.041735034 0.051557172
0001c0 00 e9 1b 3b cb 95 bb 3a b3 ab 4a bd 46 e6 94 bd
       0.0023790002 0.001431161 -0.04948015 -0.07270484
0001d0 8a 5e 9f 3d 39 8f 21 bc 7e 08 7b 3a 76 23 5a bd
       0.07781704 -0.009860807 0.00095761556 -0.053256474
0001e0 24 07 c2 3c fd 8c 2d 3d ef 19 40 3e 2f 52 3e be
       0.023685046 0.042370785 0.18759893 -0.18586038
0001f0 83 62 34 3d 3e ad e4 bc fb 20 63 3c 91 e1 37 bd
       0.04403926 -0.02791464 0.013862844 -0.04489285
000200 97 c3 bb 3d 5a 52 68 3d 77 39 ec 3c d4 21 30 3d
       0.09168165 0.05671916 0.028835995 0.04300101
000210 f8 53 a5 3d 3f 12 a3 bd 77 72 ad 3c 6f 7c a8 bc
       0.080726564 -0.079624645 0.021172745 -0.020567147
000220 44 9c c2 3c 16 b7 40 bd b7 8b ab 3d 59 a0 cb 3c
       0.023756154 -0.047049604 0.08376258 0.024856733
000230 72 e9 98 3c 22 24 04 bd 9d f8 47 bc b1 c0 6b 3c
       0.018666003 -0.03226102 -0.01220527 0.014389203
000240 e5 5c 7e 3d d9 c7 81 3d 2d 28 14 bd e3 08 77 bd
       0.06210031 0.06336946 -0.036171127 -0.06031121
000250 55 05 3f bb ee 70 2b 3d 6e 22 b6 3c 00 78 86 3c
       -0.0029147465 0.041855745 0.022233214 0.016414642
000260 3e 0a 80 3c 06 fb 26 bc e1 c0 74 3c 04 1d 5e 3b
       0.015629884 -0.010191685 0.014938564 0.0033891806
000270 b1 58 b8 bb 8f 45 20 bd 04 13 2c 3c e2 58 28 bc
       -0.005625807 -0.039128836 0.010502581 -0.010275098
000280 42 09 b8 bb 14 6b 55 3d fc cd 00 bd f1 05 90 3c
       -0.005616338 0.05210407 -0.031446442 0.017580958
000290 55 b1 67 bc 92 4d 65 bc c4 41 20 3d d4 7c 43 bd
       -0.0141414 -0.013995545 0.03912522 -0.047726467
0002a0 cf 5e 24 3d e5 a5 4c bd 8d 2a 9f 3c 6c 8e de bb
       0.04012948 -0.049962897 0.01942947 -0.0067918804
0002b0 65 e7 9b 3c 24 c8 67 bc 56 fa 79 bd 5c 8f fc bb
       0.019031236 -0.014146838 -0.061029755 -0.0077075195
0002c0 13 77 85 3c 81 8f 4f bb 5e 9e 04 3d dd 19 ec bb
       0.01629213 -0.0031671228 0.032377593 -0.0072052316
0002d0 19 17 f6 3c 75 73 2c bd 29 c2 f1 ba bd 9a 22 bc
       0.03004031 -0.042102296 -0.0018444705 -0.009924588
0002e0 8a 2d 67 bd 1d 25 b4 3c f6 fa be 3c 66 d7 a4 bb
       -0.056439914 0.021990353 0.023313027 -0.0050305603
0002f0 e3 8b f9 3c 3c 31 b0 3c a7 37 41 bd d6 43 08 bc
       0.030462211 0.021507852 -0.047172215 -0.008316955
000300 2a 4f 2f 3d b7 7c 37 bd 77 9b 6b 3c 6a fa 09 3d
       0.042800106 -0.04479667 0.014380327 0.03368608
000310 05 78 0f bd 21 1a e0 3c 15 13 e3 3b a3 10 40 3d
       -0.03502657 0.02735621 0.006929765 0.046890866
000320 6a 93 af 3f 2e f3 63 bb f9 1b c5 3c a1 3c 3e bd
       1.3716862 -0.0034782398 0.02406119 -0.04644454
000330 5c c3 aa 3d 6c 6b 2f be 6f 6b 5d 3e 23 ac 4e be
       0.08338043 -0.17130822 0.21623014 -0.20182852
000340 30 dd 2c 3e 93 7c a1 3d 5f 9b 9f bc 2e e6 2c 3f
       0.16881251 0.07885089 -0.019483266 0.67538726
000350 db 5a 34 3e 9f 7d 15 be c2 e8 dc 3d 48 f0 d8 bd
       0.17612784 -0.14598702 0.107865825 -0.10592705
000360 43 f0 1f be b4 22 1c 3d b1 0c e3 3e 58 51 d8 bd
       -0.15618996 0.038119033 0.4434562 -0.1056239
000370 8e 81 fa 3c 18 19 2d 3e af 4f be 3e 25 dc e2 be
       0.030579355 0.16904104 0.3717017 -0.44308582
000380 19 e8 a4 bc bc 1c ab bc 5c a7 12 bc 40 64 98 bd
       -0.020130204 -0.020887725 -0.008951034 -0.07440996
000390 b8 66 9e 3e 5b a2 c8 3d 6d 73 0a 3d f1 ff c6 bd
       0.30937743 0.09796592 0.033801485 -0.09716786
0003a0 3d 9b 54 be 92 f5 e1 3e 65 a4 e5 bc e8 e3 9a 3c
       -0.20762344 0.44132668 -0.028032491 0.018907502
0003b0 7f e1 10 3e 82 4e 84 3d 70 f7 8f be a0 08 8d bd
       0.1414852 0.06460287 -0.28118467 -0.06886411
0003c0 5a 92 ad 3d f9 ce 45 3c c0 ce a9 bd 0a 4c 97 bb
       0.0847518 0.012073272 -0.082913876 -0.004617219
0003d0 3c 1e 7f 3f fb 6d 25 be c3 8d 89 be a9 18 bd bd
       0.9965551 -0.16155235 -0.26865968 -0.09233219
0003e0 b5 ba 1b be 73 c0 b9 3d 20 ee ab be cf f5 a4 bd
       -0.15207942 0.0906991 -0.33580112 -0.08054697
0003f0 d9 2f 18 bd c4 79 d4 bc 92 e9 69 be de 07 40 3f
       -0.037155006 -0.025936969 -0.22843006 0.75012004

sent_gru.bias_ih_l0 f4 [30]
000000 f7 50 73 3e 7b 07 4b 3e 8b 18 f1 3d db 79 b8 3d
       0.23761354 0.19827072 0.11772259 0.09007617
000010 d3 33 58 3e b1 73 17 3e 0d bb 58 3e 93 7d 6b 3e
       0.2111352 0.14790227 0.21165104 0.22997122
000020 42 fa 66 3e 4d ec 2c 3e a5 3f 5c be e5 03 17 be
       0.22556403 0.16887017 -0.21508653 -0.1474758
000030 76 5a 7d 3d f1 df 12 be f5 22 54 be 52 8e 4d be
       0.06185385 -0.1434324 -0.2071646 -0.20073822
000040 6a b6 28 be 39 6e 71 be f4 e3 62 be 7d 8b 7b be
       -0.16475835 -0.23577203 -0.2215727 -0.2456493
000050 76 54 a5 3c 90 2b 08 3c 4a 34 b5 bd d4 5d b0 3d
       0.020181876 0.008311167 -0.08847864 0.08611646
000060 53 bf 3f 3d 67 24 ac 3c 5b f7 59 3d 7d 7b fb bd
       0.04681332 0.021013452 0.053214412 -0.12279413
000070 54 72 37 3e c4 cd 5e bc
       0.17914706 -0.013598863

sent_gru.bias_hh_l0 f4 [30]
000000 fa 50 73 3e 0e 08 4b 3e b3 18 f1 3d 2a 7b b8 3d
       0.23761359 0.19827291 0.11772289 0.09007867
000010 e7 5e 4d 3e a8 73 17 3e 8e bb 58 3e a8 53 6b 3e
       0.20055734 0.14790213 0.21165296 0.22981131
000020 43 fa 66 3e 48 ec 2c 3e a8 3f 5c be e2 03 17 be
       0.22556405 0.16887009 -0.21508658 -0.14747575
000030 25 5b 7d 3d 04 e0 12 be fb 22 54 be 53 8e 4d be
       0.0618545 -0.14343268 -0.20716469 -0.20073824
000040 43 b6 28 be f0 6d 71 be 46 e4 62 be 4f 8c 7b be
       -0.16475777 -0.23577094 -0.22157392 -0.24565242
000050 ab 03 bd 3c 7f 58 ea 3a 8f a7 00 bb b7 01 23 bd
       0.023073038 0.0017879157 -0.0019631123 -0.039796557
000060 fa 0f ec bc b8 9e a9 bd b0 78 34 3d 49 8c 5a be
       -0.028816212 -0.08282226 0.04406041 -0.21342577
000070 b8 08 4e 3c c8 1e d1 3b
       0.012575321 0.0063818432

sent_gru.weight_ih_l0_reverse f4 [30, 20]
000000 ca 19 39 3e af 83 3b be 47 80 73 bd 9c e2 2e bd
       0.18076244 -0.18311952 -0.059448507 -0.04269658
000010 88 38 b0 bd a5 da 11 3b 4a f0 90 3d 22 80 cb bd
       -0.086045325 0.0022255566 0.070770815 -0.09936549
000020 f4 6f 2e 3e 1d d3 84 bd c3 fb 9f bd 2e 72 65 3e
       0.17034894 -0.06485579 -0.078116916 0.22406837
000030 65 67 05 3e 83 98 0e bc 00 23 f7 3d b5 47 e3 3d
       0.13027723 -0.008703354 0.120672226 0.110976614
000040 db dc dd 3b 72 e5 83 bd 5f 33 1a bb 90 7e 57 be
       0.006770713 -0.064402476 -0.0023529155 -0.21044374
000050 06 32 31 3e 06 9b 7e be 16 06 36 bc 07 6a 61 3b
       0.17304239 -0.24863824 -0.011109849 0.0034395473
000060 50 77 6b bd 0c fc 02 bd 0e 63 2d 3d f5 99 02 bd
       -0.057486832 -0.031978652 0.042330794 -0.031885106
000070 91 8a 3e 3e 7e 47 1f be b7 fb 11 be f5 78 0f 3e
       0.18607546 -0.15554616 -0.14256178 0.14010985
000080 e2 9c e2 3d 7d 99 29 bd e8 82 05 3e 80 68 aa bc
       0.11065079 -0.041406143 0.13038218 -0.020801783
000090 ff f4 fd bb 69 35 43 3d 4f c9 7a 3c dd ea 4d be
       -0.007750153 0.047658358 0.015306785 -0.20109124
0000a0 8a dd 56 3e a0 0a 38 be 94 b6 84 3b 6b 17 52 bd
       0.20982948 -0.17972803 0.0040500853 -0.051291864
0000b0 55 63 b9 bd fc dd 7d 3d fe 46 29 3d 77 25 fa bd
       -0.09052149 0.06197928 0.04132747 -0.12214177
0000c0 32 e1 59 3e 5f cb a8 bd a3 d3 3d bd e0 7a 3d 3e
       0.21277311 -0.08241915 -0.04634441 0.18503904
0000d0 7b d0 3f 3e 6a 79 58 3d ca 12 a6 3d 7d e2 03 bd
       0.18731873 0.052850164 0.081090525 -0.032198418
0000e0 7b 4a 51 3c 02 90 e8 bc 11 79 1c 3d b9 2d 43 be
       0.012774105 -0.02838898 0.038201395 -0.1906041
0000f0 de dc 21 3d 97 bd e6 bc 9c 0c b5 bc cc 63 51 bc
       0.039517276 -0.028166575 -0.02210074 -0.012780141
000100 21 83 6a bc ce 6d 93 bb 84 52 43 3c 94 cc 96 bc
       -0.01431349 -0.0044991737 0.011921529 -0.018408097
000110 f8 05 16 3d 40 51 91 bc 45 d8 7c bb 67 22 02 3d
       0.036626786 -0.017738938 -0.0038581055 0.03177109
000120 36 a3 e0 3c 51 33 3c 3b 05 c7 da 3c 06 73 32 ba
       0.027421575 0.002871711 0.026706228 -0.0006807301
000130 c0 38 e8 3b 1c f9 bb ba 8c d6 21 bb 40 70 31 bd
       0.0070868433 -0.0014341208 -0.002469453 -0.04331994
000140 00 c6 46 3e 7f e5 1e be 91 0c 02 3d c7 15 54 bd
       0.19411469 -0.15517233 0.031750266 -0.05177858
000150 a9 1f 73 bd 9b 80 1a bd ae f9 cb 3d 3a 01 11 be
       -0.059356365 -0.037720304 0.09959732 -0.14160624
000160 9e 7c 3e 3e 36 d5 b5 bd 6a 85 91 bd 00 0b 6b 3e
       0.18602225 -0.088785574 -0.07105525 0.22953415
000170 4d ce 0d 3e a8 c4 07 bd 42 ab aa 3d e9 b5 91 3d
       0.13848229 -0.03314653 0.08333446 0.07114775
000180 a1 02 2f bd 39 c1 13 3d f8 b6 b7 3c ab 36 33 be
       -0.042727116 0.036072943 0.022426113 -0.17501323
000190 50 17 f8 3d 73 c6 d0 bd a2 32 fa bc b4 55 04 3a
       0.121138215 -0.10194101 -0.030541722 0.0005048171
0001a0 8b 5c 33 bd 10 1a 1a bd 1d bb 83 3d 53 0d 60 bd
       -0.043789428 -0.03762251 0.064321734 -0.054700207
0001b0 8f d5 e9 3d d2 34 1c bd 2d 3d 31 bd 48 b5 c3 3d
       0.11417686 -0.03813631 -0.043271232 0.09556061
0001c0 e6 f6 b2 3d e7 06 04 3c 24 57 20 3d bb fe c5 bc
       0.087384984 0.008058286 0.039145604 -0.024169317
0001d0 a9 d6 92 3b fa 64 94 ba 4d 52 f6 bc ff 0b df bd
       0.004481156 -0.0011321597 -0.030068541 -0.1089096
0001e0 02 4b 69 3e d0 f0 00 be ff c9 c0 bc 6b 81 72 bd
       0.2278252 -0.12591863 -0.02353382 -0.059205454
0001f0 2f 20 62 bd 3e 90 0e bd 5d a8 1a bc 4a fa 8d bd
       -0.055206474 -0.03480553 -0.009439555 -0.069325045
000200 82 f9 50 3e d8 6a c0 bd d4 b8 16 3d b8 02 20 3e
       0.2040768 -0.09395379 0.03679736 0.15626037
000210 f8 ef 1a 3e 90 73 b9 3c 03 de 26 3e 89 80 5b 3d
       0.15130603 0.022638112 0.16295628 0.053589378
000220 2b 13 52 3d 3b 1c 32 bd ab b3 6d bd cd d2 6a be
       0.05128781 -0.043483954 -0.058032673 -0.22931977
000230 69 63 29 3e 93 58 ce bd 20 16 1a bd 0f e3 5d bd
       0.16541828 -0.10075488 -0.037618756 -0.054171618
000240 a7 70 73 3c 42 62 07 bd 89 44 d3 3d a6 84 1b be
       0.014858401 -0.03305269 0.103158064 -0.1518732
000250 17 0d 28 3e 1b 02 80 bc b1 bf ab bd cb c3 62 3e
       0.16411243 -0.015626004 -0.083861716 0.22145002
000260 9b 65 26 3e 17 57 ed 3b cf 56 d1 3d c6 17 3f bc
       0.16249697 0.007243048 0.102216356 -0.011663383
000270 3b df 93 3c a7 e9 aa 3b 1c 98 37 3d 1d 85 1c be
       0.01805078 0.005215842 0.044822797 -0.15285154
000280 6f 77 2d 3e d2 c8 b2 bd 66 7e 03 be c2 4b 44 be
       0.16940092 -0.0872971 -0.12841186 -0.19169524
000290 3b 10 9a bd 8b d4 c7 bd ae c0 d8 3d 60 72 5b bd
       -0.07522627 -0.09757336 0.10583626 -0.053575873
0002a0 55 03 3b 3e b8 30 67 3d 1d 2d a6 bd 4f c1 8a 3e
       0.1826299 0.056442946 -0.081140734 0.27100608
0002b0 28 3d ec 3d 02 6a 8f bd 5a 22 98 3c f4 c2 6c 3d
       0.11535102 -0.07002641 0.018571068 0.05780311
0002c0 9d 83 43 3c b6 62 97 bc b4 06 b9 3d 55 12 26 be
       0.0119332345 -0.018479686 0.09034482 -0.1621793
0002d0 71 b6 15 3e 69 44 06 be 59 23 66 bd af da 03 be
       0.14620377 -0.13112034 -0.056186054 -0.1287639
0002e0 55 e9 bb bc e8 d7 25 bc d0 91 0d 3d 61 71 3c bd
       -0.02293841 -0.010122277 0.034562886 -0.046006564
0002f0 da 8c 12 3e cd 85 39 bd 3c 9e 23 be 0d 45 15 3e
       0.14311543 -0.045293618 -0.1597833 0.14577122
000300 ed 6d 4f 3d cb 8d 99 3c 05 28 a0 3d 16 7f c3 3d
       0.050641943 0.01874437 0.07820133 0.09545724
000310 61 a0 b1 bd ad d9 04 3c 79 bf df 3d 5f 3e 37 be
       -0.08673168 0.008108539 0.109251924 -0.17894886
000320 67 5c 23 be ff eb 26 3e cb 12 88 3d 98 5e a0 3b
       -0.15953217 0.16300963 0.066442095 0.004894089
000330 69 c7 5e 3d ac b0 78 3c ad bd db bc 55 08 5e 3b
       0.05438939 0.015178841 -0.026823843 0.0033879478
000340 f7 fd 14 be d8 53 e4 3d bf 24 49 3d eb 9a 34 bd
       -0.14550005 0.111488044 0.04910731 -0.044093054
000350 57 69 97 bd f3 64 5a bd de af 34 be 1f 6b a1 bd
       -0.07393139 -0.05331893 -0.17645213 -0.0788176
000360 99 ab c8 bc e2 d7 6f 3d 26 85 ce 3c 34 0d 2e 3e
       -0.024495887 0.05855549 0.025209974 0.16997224
000370 79 62 21 be 12 7e 32 3e da 83 0b bd 96 d5 94 3c
       -0.1576022 0.17430905 -0.03406129 0.018168252
000380 08 be 12 3d 59 86 da 3c e4 e4 19 3d d2 f6 c6 3c
       0.03582576 0.02667539 0.037571803 0.024287615
000390 53 3c 21 be a1 01 e9 3d fe 0c b3 3d 20 ed c3 bb
       -0.15745668 0.11377264 0.087427124 -0.0059791952
0003a0 76 dd a0 bd 12 74 2b bc 3b 5f 91 be 0a de 52 3d
       -0.0785474 -0.010464685 -0.28392968 0.051481284
0003b0 70 55 d1 bd f4 85 8a bd 63 c8 f6 bb ba ae 3b 3e
       -0.10221374 -0.06763831 -0.007531212 0.18328372
0003c0 a3 eb 47 be b9 6b 15 3e ad b1 06 bb 4b 39 76 bc
       -0.19523482 0.14591874 -0.002055268 -0.015028308
0003d0 a0 f5 b0 bc ea 14 3c bd 40 f9 e5 3c 0d 80 ab 3c
       -0.021601498 -0.045918383 0.028072953 0.020935083
0003e0 db f3 49 be 86 b8 a6 3d bb 00 10 bd e0 d3 6b bd
       -0.1972193 0.08140664 -0.035156947 -0.057575107
0003f0 a0 3f 8d bd 61 e3 1a bd 77 c3 14 be c8 49 b4 bc
       -0.06896901 -0.0378145 -0.14527689 -0.022007838

sent_gru.weight_hh_l0_reverse f4 [30, 10]
000000 d5 83 67 3c f2 c4 c0 bd df ef 79 bd a2 fe 25 3e
       0.014130552 -0.09412564 -0.061019775 0.16210416
000010 76 e0 59 3d f9 6e e1 3d 88 0b c3 bc 4d df 09 3d
       0.05319258 0.110074945 -0.02380921 0.03366022
000020 d8 74 b8 bd 86 2f bb 3d 32 e3 af bd 3d 8c 85 bc
       -0.09006661 0.09139924 -0.08588256 -0.016302222
000030 26 12 70 bc f5 d4 17 3e 0c 93 aa 3d 04 a1 0b 3d
       -0.014652764 0.1482733 0.08328828 0.034089103
000040 1c ef 85 bc 05 7d 55 3d b3 38 b0 3d 7e 07 10 3d
       -0.016349368 0.05212118 0.086045645 0.035163395
000050 8f cf 1c 3d 01 0c e2 bc d2 67 03 bc 5d 2b 39 3e
       0.03828388 -0.027593615 -0.008020358 0.18082948
000060 0a 61 30 bd 95 79 11 3d 3c b7 f1 bc d3 6b 5c 3d
       -0.043061294 0.03551634 -0.029506318 0.053813767
000070 01 fe 97 3d 8e 23 90 3d 01 78 7c b9 cc 83 85 bc
       0.07421494 0.070380315 -0.00024077298 -0.016298197
000080 e6 58 3e 3b cc 2d 31 3d d0 01 34 3c b0 ef b1 3c
       0.0029044687 0.043256566 0.01098676 0.021720737
000090 79 a3 5b bc 84 02 63 3c c4 b3 f2 3c 48 18 22 bc
       -0.013405674 0.01385558 0.029626735 -0.009893484
0000a0 23 e3 a3 bd 30 d1 66 3c 55 59 dc bc 1b ba 18 3e
       -0.08002307 0.01408796 -0.026898066 0.14914744
0000b0 b5 d3 3a bd 5b e8 b1 3d 72 2c 64 3d d4 5b 0a 3d
       -0.045612056 0.086868964 0.05570645 0.03377898
0000c0 93 cd 1a 3d a5 d3 80 bd 77 53 27 bd 05 69 de bc
       0.037793707 -0.06290368 -0.040851083 -0.027149687
0000d0 ae b8 bd bc 31 1c e5 3d 02 f8 c8 3c 03 b4 69 bb
       -0.023159351 0.11187018 0.024532322 -0.0035660274
0000e0 42 2f 9c 3b f9 78 7e bc 71 8f 3d bc ee b1 4d bd
       0.0047663758 -0.015531772 -0.011569844 -0.050218515
0000f0 fc 19 0b 3d 81 9d b1 3c bf cd 53 3a 9f dc 49 3e
       0.033960328 0.021681549 0.000807967 0.19713067
000100 2b 92 e6 bd 64 e0 c4 3d 70 13 21 bd 7a e3 d2 3c
       -0.11258348 0.096131116 -0.039325178 0.025743235
000110 28 b3 15 3d 93 d5 13 bd c9 56 f6 3d ee 59 27 bd
       0.03654781 -0.036092352 0.12028272 -0.040857248
000120 9b 45 ab 3d c6 3f 24 3e 85 1a 9d 3d 4b f3 a0 3d
       0.083628856 0.16039953 0.07671074 0.078589045
000130 1a 47 2a 3d a2 a0 51 3d b5 3f 8d 3d bf 08 fa bc
       0.041571714 0.051178582 0.06896917 -0.030521749
000140 ba b0 44 3d 40 21 06 be 78 69 86 3d ed 5b 1d 3e
       0.048020102 -0.13098621 0.06563085 0.15367098
000150 8f 00 2f 3e 6e 53 4b 3e ec 66 c8 3c 47 1b f3 3d
       0.17090057 0.19856045 0.02446314 0.11870437
000160 d4 af ad 3b 22 d8 8a bd 86 f6 c4 bc d8 10 cb bd
       0.0053005014 -0.06779505 -0.024043333 -0.09915322
000170 b3 ee c8 3b ba a9 f3 3d 38 7a d6 3d e2 95 0c 3e
       0.006131971 0.11897607 0.1047253 0.13729051
000180 89 bd 4f bd 65 3f 10 3e 61 b0 e3 3d 43 bb 2c bd
       -0.050717864 0.14086683 0.11117626 -0.042170774
000190 dc 5c 9a bc f6 2f 85 b8 8a 05 a2 3b 7e 44 50 bd
       -0.018843107 -6.3508676e-05 0.004944508 -0.05084657
0001a0 87 44 3f bb ba fd 07 bd 3a 78 4b 3d 0e 6b 85 bc
       -0.0029185133 -0.033200957 0.049675204 -0.0162864
0001b0 7e 0c d8 3a ce 24 ad bc f0 26 fb 3b f7 13 12 3d
       0.0016483215 -0.021135714 0.007664554 0.03566357
0001c0 ed 0c ac 3c 33 6f 9a ba 17 8f ed bc ad 3e 3e 3d
       0.021002257 -0.0011782408 -0.028998895 0.04644649
0001d0 97 42 46 bd 26 21 35 3c fe ea 26 3d 40 67 b9 bd
       -0.04840335 0.0110552665 0.04075145 -0.090528965
0001e0 63 e3 a1 bc b5 c7 bf bd bd 57 e8 bc b1 38 05 3c
       -0.019761747 -0.09364263 -0.02836215 0.008131192
0001f0 0f e2 18 3d 95 e7 e2 3a 28 f9 3c 3d ca a6 1e 3d
       0.03732496 0.0017311448 0.04613605 0.03873328
000200 89 a9 ce bb 40 6a 9b 3c 6c bf b5 bc b1 b7 86 3a
       -0.0063068313 0.018971562 -0.022186004 0.0010278133
000210 ac 35 c8 3c 04 f1 3c be 64 ab 9e bc 3e e3 2d bd
       0.024439655 -0.18451315 -0.019368835 -0.042453043
000220 99 1c ca 3c 23 53 9b 3c 73 ee 6e bc 6a 7c 20 bb
       0.02467184 0.018960541 -0.014583218 -0.002448822
000230 7e 78 ab bc cc 35 9e 3c bb c2 f2 bc 1e 89 1d bc
       -0.020931479 0.019312762 -0.02963387 -0.009615211
000240 16 5c b1 bc f5 9a c5 3c 53 ea 1c bd 9e 31 48 3d
       -0.021650355 0.02412174 -0.038309406 0.048875444
000250 85 51 5f 3d 37 a0 81 bc 76 04 db bb d2 55 b1 3c
       0.054521102 -0.015823467 -0.0066838814 0.021647368
000260 ac 47 38 3d d6 83 ba bd 1c 19 79 3c e9 79 7b bd
       0.044990227 -0.09107177 0.01520374 -0.06139556
000270 7e 96 03 3d 07 b5 ee 3c 50 0f 12 3d 36 af da bc
       0.032125942 0.029139055 0.035659134 -0.026694875
000280 4e 81 90 ba ba a8 cc bc da a2 f6 bb 24 99 b7 3c
       -0.0011024864 -0.024982799 -0.0075267376 0.02241189
000290 12 64 49 bb b4 1b e0 3b 76 e4 05 3d e9 b5 88 3d
       -0.0030729813 0.00683924 0.03268858 0.066753216
0002a0 30 d1 33 3d 4a 9a 92 3c d9 93 dd bd 73 1f 08 3d
       0.04390067 0.017895836 -0.10819215 0.033233117
0002b0 f1 95 44 bd d2 7c 59 bd 2d 8b 1e 3b 6b 46 d9 bb
       -0.047994558 -0.053097554 0.0024191842 -0.006630709
0002c0 61 b6 13 bd d9 52 fb bc 2b 51 9b bb bd 9a 73 3a
       -0.036062602 -0.030679153 -0.0047399006 0.0009292772
0002d0 0d f8 68 3c 26 73 ae bd 5b fa b6 bd c8 c7 51 bd
       0.014219296 -0.085180566 -0.0893447 -0.051215917
0002e0 10 44 94 bd 81 cc 72 bd 09 88 b3 ba 3d ee a3 3b
       -0.072395444 -0.05927706 -0.0013697158 0.0050027655
0002f0 fe 84 87 bc 38 73 c0 3d 02 b9 2c 3d f4 b6 a6 bc
       -0.016542908 0.09396976 0.042168625 -0.02035091
000300 58 00 4f 3c ae d5 37 bd a6 30 29 bd 30 58 a4 bc
       0.012634359 -0.044881515 -0.04130616 -0.020061582
000310 d7 23 d0 3c b1 df 89 3b 92 78 08 bd 3d fd a5 3c
       0.025407715 0.0042075743 -0.03331811 0.020262355
000320 7d 38 83 3f f5 be d6 bc 61 0a 7b 3e 48 52 51 3d
       1.0251614 -0.026214102 0.24515678 0.05110386
000330 b9 4c 2f be 81 b6 e8 bb 3c 11 09 be 06 d9 98 3e
       -0.17119111 -0.0071018343 -0.1338548 0.29853076
000340 c0 15 ca 3c c7 d1 a1 3e 2e b2 27 be 73 89 85 3f
       0.024668574 0.3160536 -0.16376564 1.0432571
000350 b7 e7 e4 3d 4a 41 5b 3d c8 06 55 be 93 db 68 bd
       0.111770086 0.05352906 -0.20803368 -0.056850027
000360 2d 70 be bd b7 bb d6 be 49 4f e3 bd 64 f6 22 bd
       -0.092987396 -0.4194009 -0.11099107 -0.039785758
000370 b2 0f 97 3e e5 35 4b bd 83 dd 94 3f dd e0 cc 3d
       0.29504162 -0.049611945 1.16301 0.10003827
000380 dc e7 ae 3e ab b7 b4 3b 43 4b 9f 3d 2b ac c4 bd
       0.3416127 0.005515059 0.07778027 -0.09603151
000390 21 d8 c8 3d 1c dc 95 bc 60 b8 48 3d fc 53 a2 bc
       0.09806848 -0.018293433 0.04900396 -0.019815437
0003a0 7c d3 47 bb a0 1a 8d 3e 42 08 cb 3d 60 33 80 3d
       -0.0030491045 0.27559376 0.099136844 0.06259799
0003b0 e6 28 e7 bc 0c 5d 42 bd 88 d9 8a 3d 02 e4 a3 bd
       -0.028217744 -0.047452018 0.06779772 -0.080024734
0003c0 ea 04 f8 bd 17 c2 76 be ce cc bd 3d eb 35 8f bd
       -0.12110312 -0.24097477 0.09267579 -0.06992706
0003d0 d6 f3 8d 3f ba 81 5c 3d d5 97 e0 bd 3a 4a d8 bd
       1.1090038 0.053834654 -0.1096646 -0.105610326
0003e0 c7 93 2b be b2 93 aa bc 03 3a 8e 3c 2d e8 01 bd
       -0.16755591 -0.02082238 0.017361647 -0.03171556
0003f0 8e 23 33 3e 89 c7 2a be 6d 51 c7 3d c6 f1 05 3f
       0.17494032 -0.16677679 0.097323276 0.5232204

sent_gru.bias_ih_l0_reverse f4 [30]
000000 04 c0 52 3e 71 45 6e 3e 2a 4e 86 3e 9e 7a 2e 3d
       0.2058106 0.23268677 0.2623151 0.042597406
000010 45 a7 51 3e 98 15 09 3e 5b fd 86 3e c3 e0 3c 3e
       0.20473965 0.13387144 0.2636517 0.18445115
000020 8e 8a 5c 3e d3 98 37 3e bd 22 54 be eb 93 31 be
       0.2153723 0.17929392 -0.20716377 -0.17341582
000030 94 db 7b be f2 89 8a 3d bc cc 40 be e4 16 8b be
       -0.24595481 0.06764592 -0.188281 -0.27165902
000040 02 97 4d be 15 02 4b be e8 63 81 be d4 f0 81 be
       -0.20077136 -0.19825013 -0.25271535 -0.2537905
000050 87 21 ee 3b e2 e3 95 3d 0a 6d 5e 3d c4 14 3b 3e
       0.0072671804 0.07318856 0.054303207 0.1826964
000060 9f 95 81 bd dc 34 a4 3d c3 68 e5 3d 2f 59 62 bd
       -0.06327366 0.080178946 0.11201622 -0.055260833
000070 2a 89 cb 3b ad 2a b9 3c
       0.0062114196 0.022603357

sent_gru.bias_hh_l0_reverse f4 [30]
000000 de bf 52 3e 84 41 6e 3e 23 4e 86 3e f4 71 2e 3d
       0.20581004 0.2326718 0.2623149 0.042589143
000010 2d a7 51 3e 98 15 09 3e 5b fd 86 3e 53 e0 3c 3e
       0.20473929 0.13387144 0.2636517 0.18444948
000020 aa 8a 5c 3e 8c 98 37 3e aa 22 54 be df 93 31 be
       0.21537271 0.17929286 -0.20716348 -0.17341565
000030 bb dd 7b be 67 8b 8a 3d 4b cc 40 be b6 15 8b be
       -0.24596302 0.0676487 -0.18827932 -0.27165002
000040 cd 96 4d be 15 02 4b be dc 63 81 be e5 f0 81 be
       -0.20077057 -0.19825013 -0.252715 -0.253791
000050 5a 2f 05 3b 1c 46 68 3e 74 a4 87 bc d0 b1 b3 3d
       0.0020322413 0.22682995 -0.01655791 0.087741494
000060 a1 8c f0 bd f7 02 84 3d 01 51 8f bd 36 bd d1 3b
       -0.11745573 0.06445878 -0.06997872 0.0064007295
000070 20 ad 06 bc a2 fe fe 3b
       -0.008219987 0.0077818194

sent_att_lin.weight f4 [20, 20]
000000 db 48 8f 2c 3b 46 9c ad 25 53 6f ae a7 19 de 2d
       4.072393e-12 -1.7766335e-11 -5.4416156e-11 2.524987e-11
000010 ea d8 6c 2c 81 50 4c 2c 42 ca 45 2d 74 6e 13 2d
       3.3658029e-12 2.9034832e-12 1.1243064e-11 8.380508e-12
000020 c3 45 9a 2c e4 3d 68 2d 8a 78 0a 2d 41 45 98 ad
       4.3846884e-12 1.3201416e-11 7.871157e-12 -1.7311154e-11
000030 82 80 b2 2d 47 b2 70 2e 06 49 ff 2c 05 0e cc ad
       2.0293326e-11 5.4728024e-11 7.255643e-12 -2.319834e-11
000040 58 bb 26 ad b4 39 05 2c 3c 67 f3 2d 0f cd 10 ad
       -9.477606e-12 1.8932468e-12 2.7671747e-11 -8.2309845e-12
000050 cf 9a 0e be bf 61 0b be ea 7b e2 be 19 42 46 3d
       -0.13926242 -0.13611506 -0.44235164 0.04840288
000060 c6 5d 88 3d 66 d1 8d 3d f9 f4 1e bc ec 44 3e bd
       0.06658511 0.06924705 -0.009701961 -0.046452448
000070 0c 1c 13 3d 8f 38 87 3d 42 97 db 3d 54 09 f8 bd
       0.03591542 0.066025846 0.107222095 -0.12111154
000080 c3 5b ff 3d 1b f2 bb 3e 16 d5 1c bd 5a 12 97 be
       0.12468674 0.3670815 -0.038289152 -0.2950619
000090 13 8e 1a 3b 02 39 84 bd e3 ab 80 3e da 6d f6 bd
       0.0023583218 -0.06456186 0.2513114 -0.12032671
0000a0 51 0c 22 b8 a2 15 35 39 37 eb 08 3a f9 4c 84 b9
       -3.863528e-05 0.00017269564 0.0005223038 -0.0002523435
0000b0 a6 ee 0c 38 54 cb 76 b8 92 fd 1b b9 4d 94 c7 b8
       3.360086e-05 -5.8840335e-05 -0.00014876414 -9.5166826e-05
0000c0 1a 83 4e b8 57 22 02 b9 8b 51 9c b8 ee 9d 2a 39
       -4.9236325e-05 -0.00012410559 -7.453848e-05 0.00016271297
0000d0 e9 55 3a b9 3c 45 0a ba 70 72 90 b8 03 8e 60 39
       -0.00017770346 -0.0005274599 -6.887771e-05 0.00021415208
0000e0 79 f5 9f 38 ba 49 22 b8 50 10 8d b9 75 19 83 38
       7.627434e-05 -3.8692473e-05 -0.0002690577 6.2513085e-05
0000f0 14 33 14 b3 06 25 9b 34 94 65 6a 35 75 ba b9 b4
       -3.450539e-08 2.8897938e-07 8.731961e-07 -3.45946e-07
000100 5d 40 c8 b3 42 5a ec af dc d5 06 b4 cf 20 d7 b3
       -9.3249334e-08 -4.2992282e-10 -1.2557524e-07 -1.00176855e-07
000110 8c 50 8a b3 ff 39 51 b4 52 47 fc b3 52 8c 95 34
       -6.440777e-08 -1.948574e-07 -1.17476375e-07 2.785551e-07
000120 93 dc b0 b4 dd 45 6a b5 cf 3f e5 b3 5b cb b0 34
       -3.2943043e-07 -8.727346e-07 -1.067525e-07 3.2930515e-07
000130 28 a1 24 34 06 d9 cb 31 ff 26 e6 b4 6a c6 1b 34
       1.5332319e-07 5.9327503e-09 -4.2869212e-07 1.4507683e-07
000140 3b c1 04 be f5 17 f3 bd de f7 c9 be 0d 57 50 3d
       -0.12964337 -0.11869804 -0.3944692 0.050864268
000150 c7 43 79 3d 3e 7e 76 3d df cf e2 bc 76 6e 9f bc
       0.060855653 0.060178988 -0.027687011 -0.019461852
000160 1b 4e 9e 3c c0 69 7b 3d a5 2a e3 3d bf 7b f2 bd
       0.019324353 0.061380148 0.11092118 -0.11840009
000170 9b 38 e9 3d 00 6b a8 3e 25 1a 09 bc 7d 1c 7b be
       0.1138775 0.32894135 -0.00836805 -0.24522586
000180 71 03 9f bc 8b 3c 66 bd 47 3b 69 3e 5f c2 e9 bd
       -0.01941082 -0.056210082 0.22776519 -0.114140265
000190 a2 d8 48 b7 56 e5 a2 38 8e ef 79 39 35 2e 0b b9
       -1.1971368e-05 7.767479e-05 0.00023835732 -0.00013273286
0001a0 19 4e 92 38 0c a9 00 b9 20 34 9c b8 a5 02 78 b8
       6.976369e-05 -0.00012270006 -7.448369e-05 -5.913027e-05
0001b0 68 dd ee b7 ec 36 71 b8 a5 2f 64 b8 d2 18 0d 38
       -2.8474911e-05 -5.7510028e-05 -5.440381e-05 3.3640135e-05
0001c0 5d 78 07 b8 53 fd 8a b9 88 c2 0b b8 3b 08 4e 38
       -3.2298605e-05 -0.00026510152 -3.3321354e-05 4.9121893e-05
0001d0 69 ce 90 37 6c 1f ed b7 00 3b f2 b8 2e 29 e3 b7
       1.7262255e-05 -2.8267234e-05 -0.00011550449 -2.7079685e-05
0001e0 75 dc 14 be d7 68 01 be 98 f0 d7 be 65 6b 4a 3d
       -0.14537223 -0.1263765 -0.42175746 0.049418826
0001f0 d4 15 91 3d ce 19 84 3d c6 89 e6 bc 09 d8 c6 bc
       0.070842415 0.06450234 -0.028141867 -0.024272935
000200 dc 1e d2 3c f9 5c 85 3d bf 4a e9 3d 1d 88 02 be
       0.02564948 0.06511874 0.1139121 -0.12747236
000210 73 04 ef 3d 33 bb b2 3e c0 c1 8b bc 48 64 89 be
       0.116707705 0.34908447 -0.01706016 -0.2683432
000220 a6 ba 53 bc a8 b5 7a bd 74 17 75 3e da 28 f3 bd
       -0.012922918 -0.061208397 0.23934728 -0.11873026
000230 0c e0 11 be 44 1a fd bd 29 99 d3 be cc 04 4a 3d
       -0.14245623 -0.123585254 -0.4132779 0.04932098
000240 46 17 8c 3d 55 6a 80 3d 0e 55 f7 bc 14 c8 a9 bc
       0.068403766 0.06270281 -0.030191924 -0.020725287
000250 51 16 be 3c 34 98 83 3d a6 45 eb 3d 2c 9b 01 be
       0.023204 0.06425515 0.11487894 -0.1265685
000260 02 4b ec 3d e6 6d af 3e a4 18 4d bc 0f 52 85 be
       0.11537744 0.34263533 -0.012518082 -0.26039168
000270 6b a5 89 bc e2 a6 73 bd d5 84 71 3e f0 44 f2 bd
       -0.01680251 -0.059485324 0.23585828 -0.11829555
000280 e2 13 44 b5 89 ce 8c 36 13 b5 5a 37 d5 8c ba b6
       -7.3044623e-07 4.196369e-06 1.3035972e-05 -5.559627e-06
000290 f0 fc 68 b5 ee d9 58 b5 c5 c7 11 b6 8c 3a 08 b6
       -8.679481e-07 -8.07834e-07 -2.1722965e-06 -2.0299658e-06
0002a0 7f c6 8f b5 42 35 40 b6 e8 c1 d4 b5 4c f1 68 36
       -1.07121e-06 -2.864123e-06 -1.5851665e-06 3.4711147e-06
0002b0 c9 99 8a b6 bf 64 5e b7 2f 7f db b5 87 2a a1 36
       -4.1306234e-06 -1.3255688e-05 -1.6353787e-06 4.8031247e-06
0002c0 56 f0 04 36 b9 c2 a3 b4 e0 ce d5 b6 79 41 98 35
       1.9809427e-06 -3.0502795e-07 -6.371978e-06 1.1343938e-06
0002d0 cf 69 f2 bb 64 5b 96 bc d4 50 83 bd 29 10 a5 3c
       -0.0073978673 -0.018354125 -0.06411901 0.020149307
0002e0 cc 81 ed 3b b8 e4 a8 3b e4 75 67 bb 7b 9d 13 3b
       0.007248139 0.0051542185 -0.003531807 0.0022524286
0002f0 56 a4 ff 3a 55 c6 05 3c fe 40 52 3c 24 e1 80 bc
       0.0019503932 0.008164962 0.012832878 -0.015732355
000300 71 ae c4 3c 18 25 7b 3d 93 ca 99 3b d1 39 d1 bc
       0.024008961 0.061314672 0.004693338 -0.025540264
000310 6d 90 41 bc bc dc 9d bb aa 2b f8 3c 08 05 96 bc
       -0.011814219 -0.0048175734 0.030294258 -0.018312946
000320 09 12 83 a4 fc 6b a9 25 c1 8f 89 26 6b 5a 01 a6
       -5.6842747e-17 2.939e-16 9.545249e-16 -4.4878405e-16
000330 49 ec 26 a4 e9 33 22 a5 eb 75 5d a5 5a 64 37 a5
       -3.6195653e-17 -1.4068848e-16 -1.9208647e-16 -1.590672e-16
000340 e7 93 cd a4 50 f4 74 a5 d7 41 06 a5 1a 5a 98 25
       -8.9155134e-17 -2.1246403e-16 -1.1644955e-16 2.6428852e-16
000350 90 e9 92 a5 2b 54 91 a6 5b 7a 09 a5 6b 99 c7 25
       -2.548523e-16 -1.008421e-15 -1.1924311e-16 3.4624957e-16
000360 3d a4 20 25 31 a2 87 a4 19 00 09 a6 39 8b 26 24
       1.3933434e-16 -5.882168e-17 -4.7531556e-16 3.6113438e-17
000370 33 54 bd 2e 0a be 07 31 9b b7 9e 31 46 5c f4 b0
       8.609682e-11 1.975311e-09 4.6192787e-09 -1.7779562e-09
000380 95 df c9 b0 5a 73 0b 2f 45 8b 30 b0 3a da 30 b0
       -1.4688221e-09 1.2682957e-10 -6.422634e-10 -6.4338546e-10
000390 0e f1 03 af ac b1 f2 b0 70 a8 58 b0 62 83 d6 30
       -1.200002e-10 -1.7658315e-09 -7.8819706e-10 1.560789e-09
0003a0 05 4b ec b0 69 91 a0 b1 d4 7e 4f b0 f4 39 02 31
       -1.7192582e-09 -4.673144e-09 -7.5486395e-10 1.8950432e-09
0003b0 10 65 7d 2f ee fb ad 2e ca ff 15 b1 0c f5 63 30
       2.304612e-10 7.911881e-11 -2.1827753e-09 8.293035e-10
0003c0 fc 0f 03 be a9 43 99 be e0 c5 38 be 63 cf e6 bd
       -0.12799066 -0.29934433 -0.18044233 -0.112700246
0003d0 72 59 81 3c b8 4c 36 bd 49 42 bc bc 2c 31 f5 3d
       0.015789721 -0.04450676 -0.022980826 0.119722694
0003e0 53 f2 79 bd 06 1f 99 3e d6 5d f7 bd 75 03 80 bd
       -0.061022114 0.29906482 -0.12078445 -0.062506594
0003f0 58 93 86 3d 8f f7 cf 3d f5 c8 b5 3d 46 5d e5 be
       0.06571072 0.1015464 0.0887622 -0.44797724

sent_att_lin.bias f4 [20]
000000 b5 36 a1 22 5f 07 87 be 5c 81 66 30 16 e5 38 aa
       4.369706e-18 -0.2637281 8.3857343e-10 -1.6421963e-13
000010 89 27 71 be 79 00 93 ad 80 17 84 be ad 41 81 be
       -0.23550238 -1.6712175e-11 -0.2579918 -0.2524542
000020 9d 92 45 ab b5 3e 33 bb 20 cd e9 19 8e 61 84 a6
       -7.0191926e-13 -0.0027350609 2.4174485e-23 -9.185782e-16
000030 c7 28 9b be 47 32 1d a4 ce bb 80 34 a3 a2 57 be
       -0.30304548 -3.4086535e-17 2.3978504e-07 -0.21058135
000040 9f 47 b1 2d f1 9c 34 a5 a7 31 a2 b9 40 72 dc bd
       2.0154376e-11 -1.5665685e-16 -0.00030936042 -0.10763979

sent_att_context_lin.weight f4 [1, 20]
000000 7d 6c 82 2e 47 ff 50 3f 2b 8a 12 ba c2 64 69 b5
       5.930987e-11 0.8163952 -0.00055900466 -8.6945886e-07
000010 7b ef 34 3f be f0 47 b9 77 cb 44 3f a5 77 40 3f
       0.7067792 -0.00019067802 0.7687296 0.75182563
000020 b4 aa 3d b7 74 1a a3 3d 78 6c 75 a6 83 55 bc b1
       -1.1305023e-05 0.0796403 -8.5148453e-16 -5.4812417e-09
000030 f2 a3 35 3f 06 33 8d b0 08 73 4f bb a2 b2 24 3f
       0.70953286 -1.0273602e-09 -0.0031654257 0.6433507
000040 56 5a e9 b8 dc 5d 51 b1 08 2b 13 3d 18 84 c7 3e
       -0.00011127132 -3.0466856e-09 0.03592971 0.38967967

classifier1.weight f4 [90, 20]
000000 ed 75 22 3c c6 be c5 bd a4 02 28 bd be da 76 bd
       0.009915811 -0.09655528 -0.041018143 -0.060267203
000010 5a 7d 1e be 24 5b 7d be f9 c6 6b 3e f6 05 d8 3e
       -0.15477505 -0.24741799 0.23025121 0.42192048
000020 39 34 70 be 8c 08 4d 3e a2 a3 42 3e 23 52 f1 be
       -0.23457421 0.20022792 0.19007733 -0.47132978
000030 dc d4 53 be de af d0 3d 8a ee 9e be 97 ec be bd
       -0.20686668 0.10189794 -0.31041366 -0.0932247
000040 ec e6 b6 be 10 27 91 3e 24 89 ad 3e c9 97 1d 3f
       -0.35723054 0.28350115 0.33893692 0.6155973
000050 5c b8 01 3a 2c a7 11 3d 12 e9 84 bd e0 4c a6 3d
       0.0004948431 0.03555982 -0.06489767 0.081201315
000060 cd 5a 65 3d d3 c3 1d bd ae c0 0b bd ee 4c be bd
       0.055994797 -0.03851683 -0.0341193 -0.09292017
000070 0a 34 bd 3b 2c b2 4d bd 22 35 aa bd 67 0e c8 3d
       0.005774026 -0.050218746 -0.083109155 0.09768372
000080 c9 9b 2b bd 67 7a 64 3d ba 75 86 bd c2 fc 8a 3d
       -0.041896615 0.055780794 -0.06565423 0.06786491
000090 13 37 86 bc af d2 f5 3c 2e f9 00 3e a9 bf 2d be
       -0.016383683 0.030007688 0.12595055 -0.16967644
0000a0 a7 34 06 3d ec 50 2f 3e dc 00 f8 bd 76 7f 1b 3e
       0.032765057 0.17120713 -0.12109539 0.15185341
0000b0 15 c9 62 3d 91 f8 fa bd 38 66 e6 bb a4 86 a0 be
       0.055367548 -0.122544415 -0.0070312284 -0.31352723
0000c0 a8 9d b1 3d 7c d6 90 bd 56 a2 25 be bb 69 cd 3e
       0.08672649 -0.0707216 -0.16175207 0.40119728
0000d0 1a 46 97 be a6 47 00 3e 11 89 f6 be 32 74 82 3e
       -0.2954567 0.12527332 -0.48151448 0.25479275
0000e0 62 43 6d be 55 8e ad 3d 12 13 ae 3e 5e d8 a5 bd
       -0.23170236 0.08474413 0.33998924 -0.080979094
0000f0 e5 d9 f1 bd 8c 18 13 3d d6 d0 03 be f4 f8 0e 3e
       -0.11809138 0.03591208 -0.12872633 0.13962156
000100 37 af 6a 3e 02 f2 2b be e1 ef b5 bd 81 f4 43 3e
       0.22918402 -0.16791537 -0.08883644 0.1913624
000110 a9 85 84 be 5a 30 5b bc 87 ac 07 be d7 00 49 be
       -0.25883225 -0.013378227 -0.13249408 -0.19629227
000120 5a 2e d7 bd 60 03 fa 3d fc c0 1b be 35 1d b0 3d
       -0.10506888 0.12207675 -0.15210336 0.08599321
000130 d1 52 1b be 23 99 9d 3e 42 9a e3 3e 89 b7 fc bd
       -0.1516831 0.30780897 0.44453627 -0.12339694
000140 31 50 a7 be cd 0e a3 3e 4f e7 77 be d3 a0 6d 3e
       -0.3267837 0.3184723 -0.24209331 0.23205881
000150 f8 c9 19 bf 74 b1 9c 3e 5a b7 29 3e 7c 84 11 3f
       -0.60073805 0.30604136 0.1657385 0.5684278
000160 f4 b4 d8 3e d8 ba 16 bf 29 35 a1 be 0a a8 91 be
       0.42325556 -0.5887885 -0.3148587 -0.28448516
000170 30 00 ed 3d 3f 7e 87 3e 7d e7 68 3e 4a 77 b4 3e
       0.115723014 0.26463506 0.22744556 0.3524726
000180 c1 b6 ce bd 15 68 d7 3e c5 57 35 3f 1f 3d 02 bf
       -0.10093451 0.42071596 0.7083705 -0.50874513
000190 ab e8 fc 3e cf c4 94 bd 04 33 df bd ff 5d e1 3d
       0.49396262 -0.07264101 -0.10898402 0.110042565
0001a0 85 bf 48 be 2c 21 c5 3d 6d 9e f6 3d 44 07 90 be
       -0.19604309 0.09625468 0.12041936 -0.28130543
0001b0 6f fc e8 3d b2 5d 48 bc 67 4d b3 3e db 2d 90 3d
       0.11376273 -0.01222937 0.3501999 0.07039996
0001c0 13 4e 5e 3e 4d c2 0d 3e d2 64 9b be 42 ae 55 3e
       0.2170947 0.13843651 -0.30350357 0.20867255
0001d0 c9 98 33 3e ce 19 7f 3e ce e5 20 3e b3 03 5e 3c
       0.17538752 0.24912187 0.15712664 0.013550687
0001e0 2b e4 7e 3f 94 67 07 3e e8 59 17 bf d5 ce 41 3f
       0.99566907 0.13223106 -0.5912156 0.75706226
0001f0 71 51 dc bd 20 db 06 bf d3 a6 c8 3e 96 79 b9 3e
       -0.10757721 -0.5267811 0.39189777 0.36225575
000200 c4 be cd bb 44 74 ee bd b4 47 3e be 40 1f 55 3e
       -0.0062788446 -0.1164327 -0.1858204 0.20812702
000210 9c e2 ec 3e 74 49 12 3f 70 ac a1 3e 1d 06 b4 3e
       0.4626664 0.5714333 0.31576872 0.35160914
000220 0c 64 16 bf 6c 4d c8 be 73 ac ed 3e 2f df d5 be
       -0.5874641 -0.39121568 0.4642063 -0.41771838
000230 5c d0 f6 3e 81 00 4c bf b5 74 8b be ab 21 db 3d
       0.4820584 -0.7968827 -0.27237478 0.10699781
000240 21 8b 01 3f 32 b1 42 bf 8e ca 00 bd 55 69 82 be
       0.5060292 -0.7605163 -0.03144317 -0.25470987
000250 42 62 3d bf 80 16 4a 3f 7a 3a 79 be 87 a7 e4 bd
       -0.73978055 0.7894058 -0.24338713 -0.11164766
000260 df 39 d1 be b1 a4 6b 3e 2a 9a df be 51 39 3f bf
       -0.40864465 0.23012044 -0.43672305 -0.7469683
000270 37 4d d3 3e 66 8b c8 be 76 03 be be 91 ba 8a 3e
       0.41269848 -0.39168853 -0.37112015 0.27095464
000280 27 e0 29 3e 97 70 19 3e f8 7a b0 bc 7d ee 02 3d
       0.16589414 0.14984356 -0.021543011 0.03196572
000290 ec de 9a bd b1 bf 01 bd 86 6d b5 3d db 5c 7e 3d
       -0.0756205 -0.03167695 0.088587806 0.062100273
0002a0 71 19 16 3e 07 ab eb bd 42 2c d2 bb a5 eb 82 bd
       0.14658143 -0.1150723 -0.0064139673 -0.06392602
0002b0 bf 26 c9 3d 53 e3 17 3d 5a a4 2c 3d 7a f1 de 3d
       0.09821843 0.037082028 0.042148925 0.10885902
0002c0 a4 85 b1 bd b8 7f be 3d e9 8b 13 3e 14 d3 5f bd
       -0.08668068 0.09301704 0.1440884 -0.05464466
0002d0 9f a6 21 2a 1d 41 d7 29 4d 1c 04 2b a8 ec 2a ab
       1.4357481e-13 9.5592134e-14 4.6935096e-13 -6.072456e-13
0002e0 a3 b3 3a 29 17 2e 43 aa 1a d2 b3 29 bc 9a 21 aa
       4.1456107e-14 -1.733547e-13 7.985644e-14 -1.4353357e-13
0002f0 5f fa 3e 28 e2 f1 f9 29 14 ac ae a9 fa bc b7 a9
       1.0601409e-14 1.1099781e-13 -7.757003e-14 -8.159615e-14
000300 7f 61 9f aa 56 ea c0 aa 5f b8 87 aa f2 f4 44 aa
       -2.8311725e-13 -3.4268655e-13 -2.410875e-13 -1.749328e-13
000310 eb 76 58 29 e2 11 16 2a a9 31 85 2a e7 0d 56 2a
       4.806478e-14 1.332888e-13 2.3660005e-13 1.9011842e-13
000320 57 b8 a2 be 7d 3f 76 be 61 62 86 be 88 8c bf 3e
       -0.31781265 -0.24047656 -0.26246932 0.37411904
000330 3a e0 c5 be 5d cd a0 be 2e fd 0d 3f 62 0b 0f bd
       -0.38647634 -0.3140668 0.55464447 -0.034922965
000340 46 25 04 bf 84 64 59 bf f1 ec 81 bf a7 03 18 3e
       -0.51619375 -0.84919 -1.0150434 0.14845143
000350 f5 c9 ac be 5f 96 61 3e 4a 00 00 3f ba 38 53 3e
       -0.3374783 0.22030018 0.5000044 0.20627108
000360 7e 26 11 3f cc 81 e5 be 4c 0e f6 be e8 ee 5d be
       0.5669936 -0.4482559 -0.48057783 -0.21673167
000370 75 77 0f 3f 8f e4 8f be 2a ce 5f bb 64 8e f3 bb
       0.5604165 -0.28104064 -0.0034149983 -0.007432746
000380 81 fa a4 be 01 81 2e bf e5 86 3b 3f d2 9c 14 3a
       -0.3222237 -0.68165594 0.7325271 0.000566912
000390 ee 92 0b bf de 48 1b bd a2 8c 69 3d d1 a6 10 bf
       -0.5452107 -0.03791129 0.057018884 -0.5650454
0003a0 ed 38 de bc aa 4b 4e 3d 77 2e 88 be 83 c6 7b 3d
       -0.027126754 0.050365128 -0.2659795 0.061468612
0003b0 fd e9 43 3e 05 05 1b 3e 20 3a 22 3e d1 d1 9d 3e
       0.19132228 0.15138634 0.15842485 0.3082414
0003c0 0b 2a f2 bd 54 28 7c 3e 67 1f 9a be ab 5c c1 3e
       -0.11824425 0.24624759 -0.30102083 0.37766013
0003d0 21 8d 5f 3e 77 9f 42 3f ec a2 d8 be 7a eb 9b be
       0.2183118 0.76024574 -0.423118 -0.30453092
0003e0 22 92 44 3f 64 8d 00 3d 80 0b ec 3e a0 32 19 3f
       0.7678548 0.03138484 0.46102524 0.5984287
0003f0 6d df 18 3f 00 24 9a 3e 93 8a 70 3e cc ec 44 3e
       0.5971592 0.3010559 0.23490362 0.19230956

classifier1.bias f4 [90]
000000 34 3f ba 3e d9 e7 10 3d 87 0e fd 3d be 99 20 3e
       0.36376345 0.035377357 0.123562865 0.15683648
000010 78 d2 a7 3e 6e 89 55 3e 26 a3 d5 3e 37 5f 61 3e
       0.32777762 0.20853207 0.41726035 0.22008978
000020 66 bd 66 3d 59 c6 11 ab a9 24 cd 3d e3 10 87 3e
       0.05633297 -5.178961e-13 0.10016758 0.2638007
000030 db 51 82 3e bc 3c 9d 3e 70 c2 db 3b 16 ae 6c 3d
       0.25453076 0.307104 0.0067065284 0.05778321
000040 08 82 d1 3d dd 51 20 3e 67 32 a5 af d5 97 80 3c
       0.102298796 0.15656228 -3.0049138e-10 0.0156974
000050 b0 67 e2 3e 02 39 ca af e5 3c 90 3d f0 10 2f 3e
       0.44219732 -3.6784092e-10 0.07042865 0.17096305
000060 67 2c 09 3e 1b 85 cd 3d 1b 8e 1b 3e 4b 50 56 3e
       0.13395844 0.100351535 0.15190928 0.20929067
000070 cf fa af 3d b8 2b d3 a3 77 5c 2b b6 63 86 c9 3c
       0.0859276 -2.2895181e-17 -2.5534807e-06 0.024600213
000080 f1 87 da bc 03 e5 d5 3e 14 69 9f 3e 7e 82 49 bc
       -0.02667615 0.41776285 0.31134856 -0.012299178
000090 a9 fd 91 3e 26 cc 5e 3e 89 1e 6f 3d 04 5d 04 3f
       0.2851384 0.21757564 0.05837873 0.5170443
0000a0 ad fd 99 3e 91 af 2e 3e 90 21 75 3e 76 08 c9 3d
       0.30076352 0.17059161 0.23938584 0.09816067
0000b0 2e 80 83 3d 65 7f c4 3e 9f 81 64 3d f8 47 8b b6
       0.06420933 0.38378444 0.05578768 -4.150901e-06
0000c0 b6 81 08 aa 40 59 98 3e fd e9 3d 3e fa ec 0c 3e
       -1.2124229e-13 0.29755592 0.1854629 0.13762274
0000d0 d8 42 bb 3e f7 b6 8a 3d b6 21 99 3e 14 cb 2e 3e
       0.36574435 0.06773179 0.29908532 0.17069656
0000e0 42 7f 30 98 9b 6f c2 3e e1 66 9d bc 10 a7 bd 3e
       -2.2811716e-24 0.37975773 -0.019214096 0.3704152
0000f0 f6 c9 3e 3e 6b d5 23 3e 74 f3 97 3d dd 9d 6a 3e
       0.1863173 0.15999381 0.07419482 0.22911783
000100 0b ba 3f b4 b7 08 24 3d 07 9e b6 3e 17 90 db 3d
       -1.7855943e-07 0.040047374 0.3566744 0.10720842
000110 3e b5 54 3e f8 25 b2 a8 14 50 c1 ba bc 0e b0 3e
       0.20772263 -1.9778436e-14 -0.0014748597 0.3438624
000120 e8 0f 5e 3e b9 8a 0a 3d 4f 13 af 3d 14 b7 e7 3d
       0.21685755 0.033823702 0.08548605 0.11314216
000130 33 d5 39 3e 1d 51 0d 3a 8e d5 e5 3d 05 79 96 3d
       0.18147735 0.000539081 0.11222373 0.073473014
000140 85 23 a8 3e cb 3e 3b 3e fc 0a bb 3e 83 e6 a7 3e
       0.328396 0.18285672 0.36531818 0.32793054
000150 12 e3 12 3e 9c 23 15 3e 2f 39 06 3e d4 a9 1b 3f
       0.14344433 0.14564365 0.13107751 0.6080601
000160 9d be aa 3e c1 7a c6 a7
       0.3334855 -5.508913e-15
